scripts/save_model_throw.pth (torch, 4056 bytes, 4 tensors)

fc1.weight f4 [100, 2]
0	0x3f2aa1b1	0.6665297
1	0xbed2d18e	-0.41175503
2	0xbd9b13e8	-0.07572156
3	0x3e991450	0.2989831
4	0x3f035bf4	0.51312184
5	0xbead9a6e	-0.33906883
6	0x3de2d41b	0.11075612
7	0x3d9c398e	0.07628165
8	0x3ed38a6b	0.41316542
9	0x3b5acf06	0.0033387556
10	0xbe9d9d6a	-0.3078416
11	0xbf046458	-0.5171561
12	0x3f07fd22	0.53120625
13	0x3e797230	0.24359965
14	0x3ed6d106	0.41956347
15	0xbee33214	-0.44374144
16	0xbe7d5b92	-0.24741963
17	0xbf170161	-0.5898648
18	0xbed533d9	-0.4164112
19	0x3e9192f0	0.28432417
20	0x3dc28f98	0.095000446
21	0xbf0dbd33	-0.5536682
22	0xbf0e8e52	-0.55685914
23	0xbeef5826	-0.4674694
24	0xbf2c6be3	-0.6735212
25	0x3eea9b29	0.45821503
26	0xbf1f2370	-0.6216345
27	0x3e5f980c	0.21835345
28	0xbedc0b73	-0.42977485
29	0xbd4a2f00	-0.04936123
30	0xbecdae1c	-0.40171897
31	0xbed5088c	-0.41608083
32	0xbe47188c	-0.19442958
33	0xbf1919fa	-0.5980526
34	0xbea4512d	-0.32093182
35	0x3eb6d2a6	0.35707587
36	0xbe8387f7	-0.2568967
37	0x3f124443	0.5713541
38	0x3f18e992	0.597314
39	0x3dac5635	0.0841488
40	0x3f031b89	0.5121389
41	0xbf30b4a4	-0.69025636
42	0x3f298cb5	0.66230327
43	0x3f1effda	0.6210915
44	0x3e3a112c	0.18170613
45	0xbf272683	-0.6529314
46	0x3ce74820	0.028232634
47	0xbf046c9e	-0.51728237
48	0x3f1077e7	0.56432956
49	0xbe968b6d	-0.29403248
50	0xbf21b0b2	-0.6316024
51	0xbf16f936	-0.58974016
52	0xbf2d2652	-0.676366
53	0x3f141853	0.57849616
54	0xbeea64e2	-0.45780092
55	0x3df285c8	0.11841923
56	0x3f0f40a6	0.5595802
57	0x3ee9cc66	0.45663756
58	0xbe52f09a	-0.20599595
59	0x3efb730a	0.49111205
60	0xbf052e00	-0.52023315
61	0x3e6278b8	0.22116363
62	0x3e99bd88	0.30027413
63	0xbe3a3ba1	-0.18186809
64	0x3eda0cf1	0.42587999
65	0xbc5692f1	-0.013096557
66	0xbecef21e	-0.40419096
67	0x3e019ced	0.12657519
68	0xbb653900	-0.0034976602
69	0xbf1a8eb6	-0.6037401
70	0x3ebe6fd9	0.37194708
71	0x3eb3fde8	0.35154653
72	0x3f1e06a3	0.61728877
73	0xbf11d09d	-0.56958944
74	0xbe882a1a	-0.2659462
75	0x3d1b94c4	0.03798367
76	0x3f04835f	0.51762956
77	0xbf2842be	-0.6572684
78	0x3ef702c3	0.48244295
79	0x3e84615e	0.25855535
80	0xbef11ffe	-0.4709472
81	0x3e2f2f40	0.17107868
82	0xbede1a83	-0.43379602
83	0x3ea82462	0.32840258
84	0xbecab04a	-0.39587623
85	0xbf290f52	-0.66039
86	0xbd8ec4c0	-0.06971121
87	0xbdf0cb38	-0.11757511
88	0x3ecd464f	0.40092704
89	0xbf097192	-0.5368892
90	0xbce12500	-0.027483463
91	0xbf2e8c07	-0.68182415
92	0x3f109e4a	0.5649153
93	0xbe097ab0	-0.13425708
94	0xbea8345c	-0.32852447
95	0xbf0fe50e	-0.56208885
96	0x3f2093c7	0.6272549
97	0x3e707bc2	0.2348471
98	0xbf2fc023	-0.6865255
99	0xbf0b0fb6	-0.5432085
100	0xbd8f24b6	-0.06989424
101	0xbd2a9ae7	-0.041651633
102	0xbda09968	-0.0784176
103	0x3cdc8f80	0.026923895
104	0xbec6dc79	-0.38840082
105	0x3e388a5c	0.1802153
106	0x3ee0a196	0.4387328
107	0xbf215c3a	-0.6303135
108	0x3e721758	0.23641717
109	0xbe9ea949	-0.3098853
110	0xbed1924d	-0.4093193
111	0xbf14af0c	-0.580796
112	0x3eb9ce9e	0.3629045
113	0xbee021e4	-0.43775856
114	0x3f31d502	0.6946565
115	0x3f268d7b	0.6505963
116	0x3eb20570	0.34769773
117	0x3f0172f6	0.5056604
118	0x3e6669d8	0.22501314
119	0xbecffa1c	-0.40620506
120	0x3c4d9d11	0.012549655
121	0x3ece5beb	0.40304503
122	0xbd91b970	-0.071154475
123	0xbe10f870	-0.14157271
124	0x3eb55ce9	0.35422447
125	0x3e190241	0.14942266
126	0x3eb5a182	0.35474783
127	0xbf21bf57	-0.63182586
128	0xbf21eacf	-0.63248914
129	0xbe0c6970	-0.13712096
130	0x3eebf242	0.46083266
131	0xbf1b82ca	-0.60746443
132	0xbe79f2f4	-0.24409086
133	0xbe4eaf80	-0.20184135
134	0xbec4f607	-0.38468954
135	0x3f2d6bdf	0.67742723
136	0x3ee3fa43	0.44526872
137	0x3d908eb8	0.070584714
138	0xbea0e062	-0.3142119
139	0xbecebda6	-0.40379065
140	0x3ef0a342	0.46999556
141	0xbe9197ff	-0.28436276
142	0x3f101d38	0.56294584
143	0xbedf1651	-0.43571714
144	0xbef75a1e	-0.4831094
145	0xbde0b3e0	-0.109718084
146	0xbe3e75e4	-0.18599659
147	0xbde4a6c8	-0.111646235
148	0x3eeaa106	0.45825976
149	0xbeec0a38	-0.46101546
150	0xbd4c6c3c	-0.049907908
151	0x3f2071ed	0.62673837
152	0xbea98757	-0.3311107
153	0x3cd04b40	0.025426507
154	0xbe3edb5d	-0.18638368
155	0xbe81160e	-0.2521214
156	0x3ea21bd2	0.3166185
157	0xbf1418e5	-0.57850486
158	0x3e210016	0.15722689
159	0x3efabd8b	0.48972735
160	0xbf21f8ff	-0.6327056
161	0x3e8509a4	0.25983918
162	0xbe3a6ba0	-0.18205118
163	0x3d01d330	0.031695545
164	0xbecfc301	-0.40578464
165	0x3e97ca11	0.29646352
166	0xbe5d84b4	-0.21632653
167	0xbf31410d	-0.69239885
168	0x3f1b1826	0.6058372
169	0x3e71b078	0.23602474
170	0x3f19d3d9	0.6008888
171	0xbed3d993	-0.41376933
172	0x3e27664f	0.16347621
173	0x3eb46507	0.35233328
174	0x3e528304	0.20557791
175	0xbe68f893	-0.22751074
176	0x3e761b12	0.24033764
177	0x3f105157	0.56374115
178	0x3e426a64	0.18985897
179	0x3e1e28cb	0.15445249
180	0x3e358638	0.17726982
181	0xbec511d6	-0.3849017
182	0xbea1200d	-0.31469765
183	0x3ebfa4d5	0.37430444
184	0x3dd7610a	0.105165556
185	0xbeaf44cf	-0.34232184
186	0x3d1da880	0.038490772
187	0xbe1022f4	-0.14075834
188	0x3dc7c19b	0.09753724
189	0x3f02ecd4	0.5114262
190	0x3ef2947c	0.4737891
191	0x3e0887bc	0.13333029
192	0x3ede745f	0.4344816
193	0x3e279c21	0.16368152
194	0xbe142605	-0.14467628
195	0x3f16c0bc	0.5888784
196	0xbf008920	-0.50209236
197	0x3e57debc	0.2108106
198	0xbd3a6a90	-0.045511782
199	0xbf12e9be	-0.5738791

fc1.bias f4 [100]
0	0xbe514a49	-0.20438494
1	0xbeb32d40	-0.3499546
2	0xbf22beb2	-0.6357223
3	0xbea38a19	-0.31941298
4	0x3ec558a6	0.38544196
5	0xbef21260	-0.47279644
6	0xbe9feeb5	-0.31236807
7	0x3dd3ac2c	0.103355736
8	0xbf2b672f	-0.6695432
9	0xbd3b8ee0	-0.045790553
10	0x3f190af1	0.5978232
11	0x3eeb63de	0.4597463
12	0xbce0d48b	-0.027445098
13	0xbe11c5bc	-0.14235586
14	0x3e5e7608	0.21724713
15	0x3f1427ff	0.5787353
16	0x3e37e4a8	0.17958319
17	0xbe33dd38	-0.17564857
18	0x3f2f87df	0.685667
19	0x3e5695f8	0.20955646
20	0xbce7fee4	-0.028319784
21	0x3e3bd6d3	0.18343668
22	0x3f0e63d9	0.55621105
23	0xbdaee388	-0.08539492
24	0x3d4ff642	0.05077196
25	0x3ec4a71e	0.3840875
26	0xbf101c6a	-0.56293356
27	0xbf1757fe	-0.5911864
28	0x3f017da4	0.5058234
29	0xbedc0b36	-0.42977303
30	0xbea9db0e	-0.33174938
31	0x3e97a2e9	0.29616478
32	0x3ec5a3e7	0.3860161
33	0x3f1a9fb6	0.6039995
34	0xbe0e9a8c	-0.13926142
35	0x3eb4d8e9	0.3532174
36	0xbe82e56d	-0.25565663
37	0x3ed10843	0.40826616
38	0xbe7267ea	-0.23672453
39	0xbe4eba92	-0.20188358
40	0xbf0cbcd6	-0.5497564
41	0xbea3b870	-0.31976652
42	0x3f1604e3	0.58601207
43	0x3e8e3da0	0.2778139
44	0x3f0c51c0	0.5481224
45	0xbe99ae24	-0.3001567
46	0xbd4dff58	-0.050292343
47	0xbe94d71a	-0.2907036
48	0x3f0f7a38	0.56045866
49	0xbeefc338	-0.46828628
50	0x3ebd2eb4	0.36949694
51	0xbec76ad5	-0.38948694
52	0xbe9e17c4	-0.30877507
53	0x3e230f9c	0.15923923
54	0xbe5e32a6	-0.21699008
55	0xbeb9aa8f	-0.36262938
56	0xbe662960	-0.22476721
57	0xbe56cd0b	-0.20976655
58	0xbf2ad30f	-0.667283
59	0x3f28dc68	0.65961313
60	0xbf2bba6e	-0.67081344
61	0xbee08b13	-0.43856105
62	0x3ec7ecd4	0.39047873
63	0x3ea45eb6	0.3210351
64	0xbedac1cc	-0.4272598
65	0xbe1beb06	-0.15226373
66	0x3e7050ec	0.23468369
67	0xbf282a9c	-0.65690017
68	0xbe757ce2	-0.2397342
69	0x3edfceb6	0.43712395
70	0xbed91f77	-0.42406818
71	0xbdfdaaf7	-0.123861246
72	0x3ef96306	0.4870836
73	0x3dc9cb00	0.09853172
74	0xbe9090cc	-0.2823547
75	0xbf39542a	-0.7239405
76	0x3e1ace54	0.1511777
77	0x3f1e78a9	0.6190286
78	0xbf17040d	-0.58990556
79	0xbf083547	-0.53206295
80	0xbd418cc0	-0.04725337
81	0xbf035446	-0.51300466
82	0x3f02baff	0.51066583
83	0xbee9ab36	-0.45638436
84	0xbf2570bd	-0.6462515
85	0x3e9c5f4d	0.3054146
86	0x3e9afa42	0.30269057
87	0x3f12f038	0.57397795
88	0xbbcb1b73	-0.0061983406
89	0xbf0fa103	-0.5610506
90	0x3e10f55c	0.14156097
91	0xbeb16b51	-0.34652188
92	0x3eb5c46b	0.35501418
93	0xbed3e9df	-0.41389367
94	0xbe149525	-0.14510019
95	0xbede13bf	-0.4337444
96	0xbf031399	-0.5120178
97	0xbf1c0d6e	-0.6095799
98	0x3f28b58b	0.6590201
99	0x3f20930b	0.6272437

fc2.weight f4 [2, 100]
0	0x3b90d2ce	0.004419661
1	0xbcf204e7	-0.029543353
2	0xbd1ec78a	-0.038764514
3	0x3c911a45	0.017712722
4	0xbc761f83	-0.015022161
5	0x3d2570da	0.040390827
6	0xbdf02abc	-0.11726901
7	0x3d648e7f	0.055799957
8	0x3d0d63ce	0.03451901
9	0xbcedc9e8	-0.02902694
10	0xbd4742aa	-0.04864756
11	0xbd159636	-0.036520205
12	0x3cee1721	0.029063763
13	0x3c13ae00	0.009013653
14	0xbd3b0d13	-0.045666765
15	0xbdb1cd6f	-0.086817615
16	0x3dc46d71	0.09591187
17	0x3b487860	0.0030589327
18	0xbdcf5eb8	-0.10125488
19	0xbd5fa158	-0.05459723
20	0xba125363	-0.00055818836
21	0xbc77bdf9	-0.015120977
22	0x3ce4b004	0.027915962
23	0xbd39be9d	-0.0453478
24	0xbc1b4443	-0.009476724
25	0x3c73e018	0.014884971
26	0xbdcca858	-0.099930465
27	0xbd27f523	-0.041005265
28	0x3d80ec06	0.06295018
29	0xbb4cd188	-0.003125282
30	0xbd96b30b	-0.073583685
31	0x36b536e4	5.4006105e-06
32	0xbcaafe37	-0.020873172
33	0xbd498abd	-0.049204577
34	0xbd96717e	-0.07345866
35	0xbd329c6e	-0.043606214
36	0xbd655c0d	-0.05599599
37	0xbcf92afe	-0.030416008
38	0x3b453400	0.003009081
39	0x3d3864d2	0.045018025
40	0x3daf99d9	0.08574266
41	0xbcadad54	-0.021200813
42	0xbd00197c	-0.031274304
43	0xbd89b156	-0.06723277
44	0xbd769845	-0.06020381
45	0x3d32a40e	0.043613486
46	0x3c020b6f	0.007937296
47	0xbda63b48	-0.08116776
48	0x3d5633a2	0.052295335
49	0x3d300ab6	0.042978965
50	0xbc1e4307	-0.009659535
51	0x3d319a6a	0.04336015
52	0x3dacb9af	0.08433854
53	0x3bf18f20	0.007371798
54	0xbdc25da8	-0.0949052
55	0x3d16dcae	0.03683155
56	0xbd1b916d	-0.037980486
57	0xbddf2b97	-0.10896986
58	0xbda92501	-0.08259011
59	0xbd2e6ff0	-0.04258722
60	0xbdd92826	-0.10603361
61	0x3cd23d9c	0.025664143
62	0x3d479cfd	0.0487337
63	0xbd44e0b7	-0.048065867
64	0x3d9cba1d	0.07652686
65	0xbdf78b42	-0.12087108
66	0x3da1c751	0.07899345
67	0xbd3dbf3a	-0.046324946
68	0xbd920f08	-0.07131773
69	0x3dc319a3	0.09526374
70	0x3dc05e21	0.09392954
71	0x3c38527c	0.011250135
72	0x3ca300f8	0.019897923
73	0x3d4bc7d2	0.04975111
74	0x3cfbfa0c	0.03075888
75	0x3bfbc7b3	0.007683718
76	0x3a997980	0.0011709183
77	0x3bb759f3	0.0055954396
78	0x3dc6b5e3	0.09702661
79	0x3b097cde	0.0020978968
80	0x3d99069d	0.074719645
81	0x3d1402f6	0.036135636
82	0xbd5c496b	-0.053780954
83	0xbc43f2d8	-0.011959754
84	0xbdc0eb08	-0.09419829
85	0xbc21d436	-0.009877255
86	0xbd9f27f0	-0.07771289
87	0x3aeccdd2	0.001806671
88	0xbdfc785b	-0.123276435
89	0x3d4005aa	0.0468804
90	0x3d4c7c6a	0.049923338
91	0xbd8f1a98	-0.06987494
92	0xbcec0bec	-0.028814279
93	0xbc95ebf4	-0.018300988
94	0x3d56dc93	0.05245645
95	0xbcfe9d8e	-0.031080987
96	0x3d730fba	0.05934117
97	0xbdfe8fba	-0.124297574
98	0xbda9a15a	-0.082827285
99	0xbc059e30	-0.008155391
100	0x3db2b90d	0.08726702
101	0x3b7bdcc8	0.0038431156
102	0xbc37af2b	-0.011211197
103	0xbc96f221	-0.018426003
104	0xbd6c4475	-0.057682473
105	0x3dc07649	0.09397561
106	0xbd3e99fa	-0.046533562
107	0xbc178096	-0.009246966
108	0x3d1571d2	0.0364855
109	0xbd95bb46	-0.0731111
110	0xbda5ee5b	-0.08102103
111	0x3db4b18f	0.08822929
112	0x3df64d7a	0.12026496
113	0xbd9f7e4d	-0.07787762
114	0xbd0dfdc0	-0.034665823
115	0x3d83f5bb	0.06443354
116	0x3dafa4d5	0.08576361
117	0xbd38ffba	-0.045165755
118	0x3c22874f	0.009919955
119	0x3d810e47	0.06301551
120	0xba041698	-0.0005038767
121	0x3da734f4	0.08164397
122	0xbd148e9a	-0.036268808
123	0xbcbc3e28	-0.022978857
124	0x3db08b9e	0.0862038
125	0x3d26267a	0.040564038
126	0x3d1c3aa2	0.038141854
127	0x3d3c24ba	0.045933463
128	0x3c843baa	0.016141731
129	0x3d0e5671	0.034750406
130	0x3cab5778	0.020915732
131	0x3c99e878	0.018787608
132	0x3d981595	0.074259914
133	0x3d304e9a	0.04304371
134	0x3b227960	0.0024791583
135	0xbd205250	-0.039141
136	0xbdcb0ec0	-0.09914923
137	0xbc86713e	-0.01641142
138	0x3d8cad19	0.06868953
139	0xbbf06d5f	-0.007337257
140	0x3d72a6ce	0.05924111
141	0x3cef3a64	0.029202648
142	0x3ca09b4c	0.019605301
143	0x3c437180	0.011928916
144	0xbd943ba7	-0.0723794
145	0xbd30e99d	-0.04319154
146	0xbc5757fd	-0.013143537
147	0x3db4a3e5	0.08820323
148	0x3c08e60a	0.008355627
149	0xbcb81f00	-0.02247572
150	0xbd045f50	-0.03231746
151	0x3d7724e6	0.060337923
152	0xbc0f5800	-0.008749008
153	0x3d373aa2	0.04473365
154	0xbc932480	-0.01796174
155	0x3d8b70e3	0.06808641
156	0xbd9bf3c6	-0.076148555
157	0x3d3c5323	0.045977723
158	0xbd0f3c69	-0.03496972
159	0xbc37aed7	-0.011211119
160	0xbd7a7027	-0.061142113
161	0xbd412c2a	-0.04716126
162	0xbd622465	-0.05521049
163	0xbd8ec098	-0.06970328
164	0xbd8e449a	-0.069466785
165	0xbcc5a49b	-0.024126342
166	0xbd9c22f6	-0.07623856
167	0xbdb0113b	-0.085970365
168	0xbbe296cb	-0.0069149486
169	0x3d0f4fd6	0.034988247
170	0x3d5479e6	0.051874064
171	0xbd02030c	-0.031741187
172	0xbd83f112	-0.06442465
173	0x3db275ef	0.087139
174	0x3d2fd19e	0.042924516
175	0xbd333500	-0.043751717
176	0x3cff2bbc	0.031148784
177	0x3e03147a	0.1280078
178	0xbdb1fbe7	-0.08690625
179	0xbce6ae28	-0.028159216
180	0x3da370ed	0.07980523
181	0xbd1e43c7	-0.038638856
182	0x3ac9b5d3	0.0015389271
183	0xbdc468c7	-0.09590297
184	0xbacfbfc3	-0.0015849996
185	0x3dd3afda	0.103362754
186	0x3cd19560	0.025583923
187	0xbd1c8e00	-0.03822136
188	0xbd0e6dcc	-0.03477268
189	0x3d92159e	0.071330294
190	0x3c9d0420	0.019167006
191	0x3c9ced3b	0.019156089
192	0xbc890e15	-0.016730348
193	0xbcafd32c	-0.021463
194	0x3d9b1421	0.07572199
195	0xbadea7ab	-0.0016987225
196	0x3c35db07	0.0110995835
197	0xbc1b3201	-0.009472371
198	0xbc72b5ed	-0.014813882
199	0x3db0a96f	0.08626067

fc2.bias f4 [2]
0	0x3c5a81fd	0.013336656
1	0x3dfd8d1f	0.12380432
