scripts/save_model.pth (torch, 1969 bytes, 4 tensors)

fc1.weight f4 [20, 2]
0.29495803 -0.14073686 0.53737503 -0.7060921 -0.4957957 -0.33434993 -0.15852012 -0.6834498
0.5919063 0.9116352 0.17789003 0.74819964 0.47440934 0.52312213 0.6783756 0.5169325
-0.13447146 -0.33427104 0.055952404 0.94461334 0.56659645 0.15661366 0.60398775 0.8772186
-0.652883 -0.20226845 -0.70329714 -0.10101284 -0.6636353 0.2586359 -0.3532818 -0.5822131
-0.2903369 -0.08685614 -0.62086016 -0.3634363 -0.46770054 -0.08699565 0.3088763 0.19457346
00000000: bd04 973e 531d 10be 6991 093f 74c2 34bf
00000010: efd8 fdbe ea2f abbe 1953 22be 91f6 2ebf
00000020: 2c87 173f ed60 693f ce28 363e 038a 3f3f
00000030: c8e5 f23e 55eb 053f 06aa 2d3f b055 043f
00000040: e3b2 09be 9325 abbe 592e 653d 2ed2 713f
00000050: 770c 113f 555f 203e f19e 1a3f 6691 603f
00000060: 5723 27bf 761f 4fbe 480b 34bf d2df cebd
00000070: 01e4 29bf ed6b 843e 5ae1 b4be eb0b 15bf
00000080: 0aa7 94be a2e1 b1bd b1f0 1ebf 5314 babe
00000090: 7276 efbe c62a b2bd 0925 9e3e 443e 473e

fc1.bias f4 [20]
-0.2624232 -0.0605791 0.061917935 -0.16177057 -0.40543795 -0.21235117 -0.26755297 0.099298455
-0.4848458 0.922662 0.6587311 0.37130484 -0.5211349 -0.42180768 0.21011628 -0.20915617
-0.5228702 0.41345543 -0.031030616 0.2939949
00000000: 555c 86be ca21 78bd a99d 7d3d 2fa7 25be
00000010: 9095 cfbe 9672 59be b4fc 88be fd5c cb3d
00000020: b53d f8be 9433 6c3f 9aa2 283f ab1b be3e
00000030: 1969 05bf 2df7 d7be b928 573e 092d 56be
00000040: d2da 05bf 6eb0 d33e eb33 febc 8086 963e

fc2.weight f4 [2, 20]
-0.11832193 -0.1598769 -0.041745946 0.116132334 0.45362973 0.58352995 0.45336276 0.12681982
0.100597665 0.39557394 0.49332044 0.29645133 -0.095396094 0.033940293 -0.13263899 0.030749436
0.09486087 0.039759673 -0.039762765 0.14652081 -0.10551149 -0.098337926 -0.111612886 -0.034149356
-0.43081713 -0.4016201 -0.52605283 -0.20955148 -0.027361086 -0.12185771 -0.482049 -0.17922667
0.22152144 -0.18502915 0.0497758 -0.11545311 0.106630236 -0.13669574 0.17996624 -0.31422234
00000000: c552 f2bd c5b6 23be ccfd 2abd cad6 ed3d
00000010: 2842 e83e 3862 153f 2a1f e83e 0edd 013e
00000020: 2606 ce3d ab88 ca3e 7f94 fc3e 78c8 973e
00000030: 075f c3bd fa04 0b3d 84d2 07be 3ee6 fb3c
00000040: 6a46 c23d 0adb 223d 48de 22bd 8d09 163e
00000050: 6816 d8bd 6565 c9bd 4c95 e4bd 32e0 0bbd
00000060: 1094 dcbe 26a1 cdbe 66ab 06bf aa94 56be
00000070: 5b24 e0bc 8990 f9bd 20cf f6be 3287 37be
00000080: 84d6 623e 4878 3dbe b6e1 4b3d ae72 ecbd
00000090: f460 da3d f8f9 0bbe 1249 383e c0e1 a0be

fc2.bias f4 [2]
0.20739938 -0.010289293
00000000: 8160 543e 6c94 28bc
