scripts/save_model_throw.pth (torch, 2005 bytes, 4 tensors)

fc1.weight f4 [20, 2]
0.30520913 0.6799524 -0.38306537 0.76728547 -0.6600015 0.6944078 0.24486525 0.4295726
0.6026513 -0.15310992 0.21589495 -0.2589987 0.4945192 -0.20020911 0.2198356 -0.08632332
-0.21617357 0.05553387 0.40135092 -0.37712777 0.19405822 0.46757782 -0.5765464 -0.6138611
-0.45636785 -0.1809424 -0.38868353 -0.20021944 0.045589916 0.45600066 0.47328356 -0.6018029
-0.073524855 0.37557104 0.42256135 0.42982072 0.21241288 0.41725695 0.37825942 -0.048280053
00000000: 5f44 9c3e 5c11 2e3f 2521 c4be d26c 443f
00000010: dcf5 28bf b6c4 313f f5bd 7a3e f1f0 db3e
00000020: 5b47 1a3f d9c8 1cbe 9113 5d3e 7a9b 84be
00000030: 9f31 fd3e 9e03 4dbe 951c 613e 48ca b0bd
00000040: 9b5c 5dbe 7c77 633d de7d cd3e e416 c1be
00000050: 33b7 463e 5c66 ef3e 8b98 13bf 0026 1dbf
00000060: 0ca9 e9be f748 39be 8701 c7be 5306 4dbe
00000070: 7ebc 3a3d eb78 e93e 3952 f23e c10f 1abf
00000080: 3394 96bd d94a c03e f659 d83e 7611 dc3e
00000090: c382 593e b4a2 d53e 38ab c13e 4ec1 45bd

fc1.bias f4 [20]
-0.4385921 -0.5952761 -0.0366359 -0.75279 -0.28525037 -0.63648087 0.40632284 -0.69189614
0.33497027 0.4134222 -0.32053784 0.6389076 0.5924973 -0.569697 0.52843624 -0.011734947
-0.4516704 -0.38673946 0.24481156 0.409028
00000000: 258f e0be 0464 18bf 870f 16bd d8b6 40bf
00000010: 560c 92be 69f0 22bf 8c09 d03e 1b20 31bf
00000020: 3981 ab3e 13ac d33e 891d a4be 738f 233f
00000030: e7ad 173f aad7 11bf 9947 073f ef43 40bc
00000040: 5841 e7be b702 c6be e2af 7a3e 1e6c d13e

fc2.weight f4 [2, 20]
0.15553093 -0.087278426 -0.2501588 0.011508282 0.17447501 -0.005115554 -0.08235802 -0.14996758
-0.1892791 -0.033250473 0.0148995835 0.0633797 0.085313514 -0.16795585 -0.08241914 0.090238154
-0.22943124 0.14673889 0.17893912 0.10320946 -0.008911495 -0.44351536 -0.15436336 -0.21629561
-0.11679662 -0.078466035 0.262761 0.012418927 -0.07449596 0.018497845 0.117101885 -0.0073322947
0.118316524 0.104471475 0.015251436 0.08363226 -0.23279141 0.20822729 0.24107571 0.09134434
00000000: 8043 1f3e 08bf b2bd d014 80be 3c8d 3c3c
00000010: 94a9 323e 61a0 a7bb 52ab a8bd 1a91 19be
00000020: 61d2 41be a631 08bd 621d 743c 37cd 813d
00000030: dab8 ae3d 9efc 2bbe 5ecb a8bd c8ce b83d
00000040: 06f0 6abe b842 163e d13b 373e 7b5f d33d
00000050: 8501 12bc 7214 e3be 6e11 1ebe 997c 5dbe
00000060: 1133 efbd cdb2 a0bd 9c88 863e c178 4b3c
00000070: 5691 98bd cb88 973c 1dd3 ef3d bf43 f0bb
00000080: ef4f f23d 24f5 d53d 29e1 793c 6447 ab3d
00000090: df60 6ebe 8939 553e 8ddc 763e be12 bb3d

fc2.bias f4 [2]
0.0073112603 -0.10314875
00000000: 4c93 ef3b a73f d3bd
