scripts/save_model_throw.pth (torch, 1951 bytes, 4 tensors)

fc1.weight f4 [20, 2]
000000 a4 21 05 bf 1b 3d 23 be d4 61 21 3f 31 c6 db bd
       -0.52004457 -0.15941279 0.630399 -0.107311614
000010 f4 78 7f 3e fe 54 af 3e 2e 8d d4 3e d6 91 b4 be
       0.24948484 0.3424453 0.41513962 -0.35267514
000020 f5 b3 8b bd 30 3f 27 bf 6f 48 99 be ca 4d 1d 3f
       -0.068214335 -0.6533079 -0.29938075 0.6144682
000030 ec 1d fc bd 14 cc c8 be 8d eb 2c bf c3 b0 3c be
       -0.12310395 -0.392182 -0.6754692 -0.18426804
000040 32 62 d1 be 7c 83 ba 3e 27 db 14 3f 66 a3 e7 3e
       -0.4089523 0.3642844 0.581469 0.4524185
000050 27 ee 09 3f 6e 07 cb be c0 14 03 3e ff d4 f7 be
       0.53879017 -0.39654106 0.12800884 -0.4840469
000060 65 7d 0a bc db 31 80 be 65 ee 33 bf aa ec 2c bf
       -0.008452748 -0.25038037 -0.70285636 -0.6754862
000070 de 3a fd 3e 7e 50 67 3c 23 3c 0e 3f 24 8f 08 3f
       0.49458975 0.014118312 0.5556051 0.53343415
000080 de 48 ab bd 6d 1e 8d 3d bf 84 06 3f c9 69 24 3e
       -0.08363508 0.06890569 0.52546304 0.16055979
000090 e6 31 00 bf b9 98 8b be 13 a3 83 3d cc 44 2e bf
       -0.5007614 -0.27264956 0.06427588 -0.68073726

fc1.bias f4 [20]
000000 9c 38 85 3e 3d a9 05 bf 47 6c d2 3e c8 46 23 be
       0.26019752 -0.5221136 0.41098234 -0.1594497
000010 63 6b 25 bf fd 85 e0 be 4a 82 12 bf 83 53 a9 be
       -0.64616984 -0.43852225 -0.57230055 -0.33071527
000020 37 bf 06 bf e7 8c 98 3e 8f e3 56 3e 7a 31 fc 3e
       -0.5263552 0.29795 0.20985244 0.49256498
000030 54 1a c2 3e c6 47 a8 bb 8f 8f b4 3e d7 7f 0e 3f
       0.37910712 -0.005135509 0.35265777 0.5566382
000040 08 7e 13 3f ad ee 22 3f 08 80 13 bf 3c 46 17 bf
       0.57614183 0.6364544 -0.57617235 -0.59091544

fc2.weight f4 [2, 20]
000000 e1 0e d4 3d 1e a4 36 3e 14 70 a3 3d 3c b0 45 be
       0.103544004 0.17836043 0.079803616 -0.1930551
000010 98 ca f1 bd 9a 1f 06 bd fd ae b0 bd 5e d4 1b 3e
       -0.1180622 -0.03274498 -0.08627126 0.1521773
000020 e9 e5 f4 bd f0 b3 67 be a5 d1 a6 3e 12 59 3c 3e
       -0.119579144 -0.22627234 0.3258182 0.18393353
000030 ab 09 cf bc 17 72 f2 bd b1 97 b4 bd e2 73 38 3e
       -0.025273165 -0.11838167 -0.08817995 0.18012956
000040 d4 5e 88 bd 1c 31 15 3e 21 7f f2 bd f7 77 f4 3c
       -0.06658712 0.14569515 -0.11840654 0.02984236
000050 7f d7 30 be 45 98 b4 bd af 76 30 3e 2c 0b 18 3e
       -0.17269705 -0.088181056 0.17232774 0.14848012
000060 67 b7 16 3e 87 ce c8 be 92 16 0a 3e d3 5d f9 bd
       0.147184 -0.39220068 0.13485172 -0.12176099
000070 e5 9f 3f bd 95 54 b4 3d 07 a7 c7 3e e4 e1 9d bd
       -0.046783347 0.08805195 0.3899462 -0.07709101
000080 65 48 29 be 39 2b 6a bd a3 5d 96 bc 06 f0 65 3d
       -0.16531523 -0.057170127 -0.018355196 0.056137107
000090 09 88 a3 3d af f7 1a be 41 f4 a4 3d 25 48 39 bc
       0.07984931 -0.15133546 0.080544 -0.0113087045

fc2.bias f4 [2]
000000 cc 31 08 3e ce 2f 50 3e
       0.13300246 0.20330736
