scripts/save_model_throw.pth (torch, 2005 bytes, 4 tensors)

fc1.weight f4 [20, 2]
00000000: 70dc d1be e2d0 0fbf bfc6 1fbe f777 cebe
00000010: 2868 763e c007 c9be a948 b43d f03c a93e
00000020: 454c 233f 80f8 bebe 4c56 5b3c 115d ca3e
00000030: 83f0 cd3d c3f8 43be 4b13 a4bd 07db 0bbe
00000040: aca5 f33d 5502 9e3e 6706 c83e 1d81 033f
00000050: 3ba3 71bd caeb 283f c521 3c3f 2531 a53e
00000060: 40fc 14be 5928 673c 1e16 073d 13bc e63d
00000070: 5c44 9f3e dbff 833d 2fa1 0c3f fc52 923e
00000080: 1b09 203f b245 1e3f 8923 19be 6a34 463e
00000090: df9c 2cbc 4d1d 12bf bc7d 8c3d 98af ddbe
-0.40988493 -0.56178105 -0.1560316 -0.403259 0.2406317 -0.39263725 0.08802921 0.33054304
0.63788253 -0.37298965 0.013387274 0.3952413 0.100556396 -0.19137864 -0.08011492 -0.13657771
0.11896834 0.30861154 0.39067385 0.51368886 -0.05899356 0.65984786 0.7348903 0.32264057
-0.1454935 0.014108741 0.032980077 0.11266341 0.31106842 0.06445285 0.54933447 0.28578937
0.62513894 0.61825097 -0.14954962 0.19355932 -0.010535448 -0.5707596 0.068599194 -0.4329803

fc1.bias f4 [20]
00000000: f28e 8dbe b7b2 a53d 9eb7 f4be bbb7 1fbf
00000010: 9925 f6be de65 90be c9e3 013d e083 07bf
00000020: 0680 24bf 5bc1 f63e cc27 31bf 81a1 a2be
00000030: 6112 393f 9aa2 26bf d12f ad3e 798f 903b
00000040: 61f3 ba3e 762c 003f 76c8 243f 8d13 033f
-0.2764812 0.08090728 -0.4779634 -0.62389725 -0.4807556 -0.28202718 0.031711373 -0.529356
-0.6425785 0.48194394 -0.6920135 -0.31763843 0.7229367 -0.6509186 0.33825544 0.0044116345
0.36513808 0.5006784 0.6436838 0.5120171

fc2.weight f4 [2, 20]
00000000: ce1c 4e3e aac6 f73d 7a16 e7bd 635b 25be
00000010: 86ed 2abe 8059 8e3d 6b14 0d3e 70a4 0e3e
00000020: ffb2 9abe afdd 35be 803b b5bd ec8e ab3d
00000030: 9ab0 363e 6324 9ebd 4d89 443e 7071 903d
00000040: 50b6 4f3e d522 0cbd 9e80 b03c 599f cbbd
00000050: 38c9 893d cea0 d7bc d3cf f93d 8d85 17be
00000060: 5fd4 19bd a55c 11be 26b7 a03d 0725 243e
00000070: a77d f6be 4d73 55bb fb4a a4bd 6b96 843e
00000080: 4513 803e cfcf 8e3d 4921 c43d 3a30 4e3c
00000090: 08f4 a6bc 0fe2 473e 1ed8 0bbe d418 463d
0.20128176 0.12098439 -0.11283584 -0.16148143 -0.1669217 0.069506645 0.1377732 0.13929915
-0.30214688 -0.17760347 -0.08849239 0.083768696 0.17840806 -0.07721784 0.19193001 0.070528865
0.2028439 -0.034212906 0.021545704 -0.099425025 0.067278326 -0.026321795 0.121978424 -0.1479704
-0.03755605 -0.14195497 0.07847433 0.1602975 -0.4814274 -0.0032569945 -0.08022114 0.2589601
0.250147 0.0697323 0.09576661 0.01258474 -0.020380035 0.19519828 -0.13656661 0.04836352

fc2.bias f4 [2]
00000000: 2dbb 89bd b98e e93c
-0.06725154 0.028510438
