scripts/save_model_throw.pth (torch, 2456 bytes, 4 tensors)

fc1.weight f4 [20, 2]
000000 28 b8 29 3e 74 d9 1a bf 64 42 27 be 31 be 2b bf
       0.16574156 -0.6048806 -0.1633392 -0.67087084
000010 af af c0 3e 12 28 bf be 2d 12 4a be 34 01 d7 3e
       0.37634036 -0.3733526 -0.19733496 0.41993105
000020 08 fd 71 3e 76 e8 8b be c8 00 23 be fb 1b a1 be
       0.2363168 -0.2732579 -0.15918267 -0.3146666
000030 dc 00 d1 3e 15 10 ce 3e f3 ee d2 be b0 7b d9 be
       0.40820968 0.40246645 -0.4119793 -0.4247718
000040 28 c7 00 bf 3f 81 01 3f 9d 68 20 3f e7 fb 03 3e
       -0.5030389 0.5058784 0.6265963 0.12889062
000050 df da 03 bf 3b 70 e7 3e 89 04 9b be e1 6f 17 3f
       -0.51505846 0.45202813 -0.30276898 0.5915509
000060 7c 82 b0 3e 1e 63 c3 3e 60 51 18 bd 95 d1 16 bf
       0.34474552 0.38161558 -0.03718698 -0.58913547
000070 40 16 2e bf 79 46 a1 be a6 02 e7 3e 1e d5 19 bf
       -0.680027 -0.3149908 0.45119208 -0.60090816
000080 fd 91 18 3e 4f 94 a8 bc a0 80 11 3f 52 a4 7a 3e
       0.1489944 -0.020578532 0.5683689 0.24476746
000090 88 03 fe 3c ac 38 38 3f 10 2f 58 3d 7e b9 ca be
       0.031007543 0.71961474 0.052779257 -0.39594644

fc1.bias f4 [20]
000000 8a fe e3 be 03 98 13 bf 6e 92 ab be 31 78 ad be
       -0.44530135 -0.57653826 -0.33510154 -0.3388076
000010 bd 4f bd be 24 ff c2 be ea 31 13 3f d4 03 0a be
       -0.36974898 -0.38085282 0.5749804 -0.13478023
000020 32 65 f0 be 73 90 0d bf 2b 41 d6 3e be 60 00 3e
       -0.46952206 -0.55298537 0.41846594 0.12536904
000030 7e 26 05 3f e0 0c 61 bd 30 47 1c bd 10 fb 98 bd
       0.5201186 -0.05494392 -0.038153827 -0.07469761
000040 78 e1 0a be a2 cc e4 3e 66 52 dd be 65 92 25 bf
       -0.13562572 0.44687372 -0.43226928 -0.64676505

fc2.weight f4 [2, 20]
000000 e0 c6 45 3e d2 b7 0d be 6b 0b 01 3c 43 01 a8 bd
       0.19314146 -0.13839653 0.007876257 -0.08203366
000010 6c 37 55 bd 98 a7 16 bd 11 e8 89 be 00 4c b7 3d
       -0.052054808 -0.036780924 -0.26934865 0.08950043
000020 fe 5a 0d 3e 14 33 51 be 4f fe 8c 3d 9f 04 09 be
       0.13804242 -0.20429641 0.06884443 -0.13380669
000030 15 8b f3 3d ec 41 06 3e 90 80 3d bd a8 01 23 be
       0.11891762 0.13111085 -0.046265185 -0.159186
000040 5b e4 58 3d d4 ea 32 bc a2 ff 7d bd b0 f0 5f 3e
       0.05295215 -0.010920245 -0.06201137 0.21869159
000050 2b 92 f4 bd 06 a8 44 3e 06 05 86 3c d6 25 9c bd
       -0.11941942 0.19204721 0.016359817 -0.07624404
000060 b8 27 ec bc ea 98 03 be c4 d0 a2 bd c6 c1 2e be
       -0.028827533 -0.12851301 -0.07949975 -0.17066106
000070 3d 0f 55 be 92 a5 16 3e 0b 86 28 3e 77 a6 9e bd
       -0.20806594 0.14711598 0.16457383 -0.077465944
000080 a7 71 54 3e c0 72 46 be 00 0b 02 be 62 98 2e be
       0.2074648 -0.19379711 -0.12699509 -0.17050317
000090 b5 1f 63 3e 6e 17 6e bd ac 9f 50 3e c0 5f e3 3d
       0.22180064 -0.058127813 0.2037341 0.11102247

fc2.bias f4 [2]
000000 4e b7 5a be 50 5a 44 3d
       -0.21358988 0.04793769
