scripts/save_model_throw.pth (torch, 4056 bytes, 4 tensors)

fc1.weight f4 [100, 2]
00000000: 5dcf dcbe ce18 2abb e0c3 16bf b2f9 22bf
00000010: 5162 ff3e 4ca8 6d3e dc24 9a3e 856a 9abe
00000020: e96b 9a3d e503 33bd fe19 0fbf ceeb bebe
00000030: b00d b7be cef8 c33e c81b 5ebe 003b 26bc
00000040: 6958 033f a71f 30bf ee8f a13e 19cd 0bbf
00000050: c9ef 1abf bd28 ea3e c0c7 f7bc e953 98be
00000060: bde1 0dbe 154b a4bd 436a 123f ef9a 57be
00000070: 2ed7 023f d33f 273f 4768 2a3f f8b2 da3e
00000080: 44a3 8bbe 5539 2d3f 48ed 0fbe 4082 c2be
00000090: e6fa d5be b511 0d3f c4d6 643e 3485 cdbd
000000a0: 2663 bd3e c57a e6be c833 07bf 0245 973e
000000b0: f33d fc3e 80b7 2f3f a047 c63e 5f9b 9c3e
000000c0: 9c2f e9be 9107 163f 7f29 253f f555 8ebe
000000d0: 2318 243d 9644 b9bb 83fe 923e cc5f 39be
000000e0: 3015 03bf 9351 9fbe 349d b9be 1c28 d63e
000000f0: 0f17 6b3d 3b51 d63c 6e0e cf3e de20 c6be
00000100: 61ff 073e 3fa3 1e3f a760 183f fea7 f63e
00000110: c761 a0be c9a9 93be 401e 893d a085 4ebe
00000120: e29c f23e 3488 173f 73fd 123f d022 e8bd
00000130: e9b8 803e 8ef8 b23e e5f1 963e ffc1 083f
00000140: 540b 90bc 5f44 47be f826 f8bd ee7a 77be
00000150: 0c9e 28be de2b 0bbf a72f 513e 6f03 cd3e
00000160: a267 543e cde1 90be a476 bdbe 9a47 6ebe
00000170: 5594 cfbe d7f6 1dbf 36db b3be dc7a 263f
00000180: 6ac0 22bf bc37 56be e7dd 0bbf 8271 9a3e
00000190: 6bca 143f dd4d d8be 90dd d13e 806e f33e
000001a0: a03a 7cbd f865 4dbe f57d 443d bb6a 37be
000001b0: c2fa 593e f1ec ce3d c08c 1bbf 8dfd dd3e
000001c0: e7b6 283f 5703 6cbe 2d4c ee3e 62d1 0dbf
000001d0: 5681 0fbf e899 00bf f945 f03e ff8b 09bf
000001e0: 4679 023f ee6c d5be 0a6a 053f 545a d1be
000001f0: 0a1c 3fbe d3be 023f 4291 c53d 8883 e4be
00000200: 0b63 b4be b8bd 3abe 16bc e0be 887b 2ebe
00000210: b5c2 85be 23e8 a5be 3cb7 29bf 5ce2 28be
00000220: 0070 c23b 9e39 0fbf db3a b7be 004f dc3d
00000230: d8ee 21be fc62 00bf d989 103f 5a5e 8fbe
00000240: bdee 133f d685 7e3d d83a 94bd 545f 15bf
00000250: 0ed2 053f 3321 143e f4e7 723d f027 0d3f
00000260: b238 9fbe e818 90bd 8ce0 d1be d4be 03bf
00000270: 95f6 0a3f 7a65 a5be ea68 e53e ea5d ccbe
00000280: a187 88be 992a d93e 3433 a4be 562f 2b3f
00000290: a4e5 173e 939a c7be 3f53 ca3d a896 d3be
000002a0: acf6 cd3e 8577 07bf ad1d cc3e 32b2 a23e
000002b0: 03ae 2ebf ea65 d03e f0c5 42be 9a51 d53e
000002c0: 8841 b23e 0c85 d53e 9033 7bbd 400f 9abc
000002d0: 889d 3dbe 8007 93bb 3c92 2ebe f02e 8abe
000002e0: d00d edbe 39bf 1fbf dacd 003f d8f7 18be
000002f0: 64d9 80bd c1a4 e43e 2302 b9bc 5c44 c93e
00000300: 2c74 1abe 40f6 6dbd 2048 f83e 5c5e 003f
00000310: a0b8 093e ee0e 61be 2354 993e 3b49 3cbf
-0.43126956 -0.0025954726 -0.5889263 -0.63662255 0.49879697 0.23208731 0.30106246 -0.30159393
0.075401135 -0.043704886 -0.55899036 -0.3728928 -0.3575263 0.3827576 -0.21690285 -0.010145903
0.5130678 -0.687983 0.31555122 -0.5460983 -0.60522133 0.45734206 -0.030246615 -0.29751518
-0.13855644 -0.08022133 0.5719339 -0.21055196 0.5110959 0.65331763 0.66565365 0.42714667
-0.27273 0.67665607 -0.1405536 -0.37989998 -0.41792983 0.55105144 0.22347552 -0.10035172
0.36989707 -0.4501554 -0.52813387 0.29544836 0.49266014 0.68639374 0.3872652 0.3058729
-0.45544136 0.58605295 0.64516443 -0.27799955 0.04006208 -0.005653928 0.28709802 -0.1810295
-0.51204205 -0.31116924 -0.3625275 0.41827476 0.057395037 0.02616178 0.40440696 -0.3869695
0.13281013 0.61967844 0.5952248 0.48175043 -0.31324598 -0.28840473 0.06695223 -0.20168161
0.47385317 0.59192204 0.5741798 -0.11334765 0.25141075 0.34955257 0.29481426 0.53421015
-0.017583527 -0.19459675 -0.12116808 -0.24167988 -0.1646654 -0.5436381 0.20428334 0.40041682
0.20742658 -0.28297272 -0.37004578 -0.23269501 -0.40542856 -0.6170477 -0.35128182 0.6503122
-0.6357485 -0.20919698 -0.5463547 0.30164725 0.58121365 -0.42246905 0.4098935 0.47545242
-0.061579347 -0.20058429 0.047971684 -0.17911808 0.21287063 0.10103787 -0.6076164 0.43357506
0.65904087 -0.23048149 0.46542493 -0.5539762 -0.56056726 -0.5023484 0.46928385 -0.5372924
0.509663 -0.4168467 0.5211493 -0.40889227 -0.1866304 0.51072425 0.09646846 -0.446316
-0.35231814 -0.18236434 -0.43893498 -0.17039311 -0.26125112 -0.3240367 -0.6629522 -0.16492599
0.0059337616 -0.5594729 -0.3578709 0.107572556 -0.15813768 -0.5015104 0.5646034 -0.28001672
0.5778616 0.062139355 -0.07237786 -0.58348584 0.52273643 0.1446579 0.05930324 0.55139065
-0.31097943 -0.070360005 -0.40991628 -0.51463056 0.54282504 -0.32303983 0.44806606 -0.399154
-0.26665977 0.42415312 -0.32070315 0.66869104 0.14833695 -0.38985118 0.09879159 -0.4132588
0.40227258 -0.5291675 0.3986639 0.31776577 -0.6823427 0.40702754 -0.1902082 0.4166382
0.3481562 0.4170307 -0.06132847 -0.0188061 -0.18517125 -0.004486978 -0.17047971 -0.26988935
-0.462996 -0.6240116 0.50314105 -0.14938295 -0.06291464 0.44656947 -0.022584027 0.39309967
-0.15083379 -0.05809617 0.48492527 0.5014398 0.13449335 -0.21978351 0.29947004 -0.7354924

fc1.bias f4 [100]
00000000: 276c 173f 47a9 bbbe 9824 9d3b d02b cd3e
00000010: 8855 973e ae6a de3e e0e9 33bf caa5 9c3e
00000020: 78eb 25bf 2ca6 4fbe 0d32 103f 1671 30bf
00000030: 940d f63e 9e59 c53e c5e0 c53e 3a70 56be
00000040: 2640 073f c030 2a3d 8d42 fdbe 1ab8 c3bd
00000050: 9dde 15bf f644 a23e e595 10bd 72e7 d7be
00000060: 4526 0c3f 24d5 c53d 7ca2 c83e d094 793e
00000070: a437 10be 75a3 5c3e 0f98 9a3d 3e87 a33e
00000080: 0d57 e73d 314d 11bf 490a 333f 08bb 553e
00000090: 7c8b a53e 8bf5 8f3e 65c0 173f da88 73be
000000a0: 4187 0e3f 901e 773d c282 9f3e 3964 193e
000000b0: 1aee c13e 8fe0 153f e4a3 18be 626b 6b3e
000000c0: ceac ec3e 1a48 87be 29f3 923e 8973 133f
000000d0: fdd1 0ebf 13b8 f13e 2808 a0be cefb 063f
000000e0: a0f8 85be 0fec 1e3e 683a 99be 5247 883e
000000f0: a9f3 f53d 9d0d 13bd efd0 963e 7b61 273f
00000100: 92e9 dcbe 3947 04bf 40ed 283d 7443 3e3e
00000110: a721 013f 70e1 2b3e 82fa 79be 79e5 c03e
00000120: d41e 863e 66cf a5be 2c2a a63e 4945 95bc
00000130: f401 323e e04b 1c3e b0ea 27bf ecce 18bf
00000140: 6eb3 153f c628 243f de9b 28bf 0536 933e
00000150: 5ffd c43e 6a9a adbb c0a8 003d 9490 1cbf
00000160: 4f60 e9be 7405 c0be c0f2 aabd 3277 a73e
00000170: ac25 883e 2746 b4be df45 9e3c 0d35 07be
00000180: a5aa 0fbf 7e66 103e 3032 afbd a8cb d13e
0.591494 -0.36652586 0.004795622 0.4007249 0.29557443 0.43440765 -0.7027874 0.30595237
-0.6481242 -0.20278233 0.5632637 -0.68922555 0.48057234 0.38544935 0.38648048 -0.20941249
0.5283226 0.041550398 -0.49464837 -0.09556599 -0.58542806 0.31693238 -0.0352992 -0.42168766
0.54745895 0.09659794 0.39186466 0.24373174 -0.14083725 0.21546729 0.07548534 0.3193912
0.112959005 -0.5675841 0.6993757 0.20872128 0.3233298 0.28117022 0.59277946 -0.23782673
0.5567513 0.06033188 0.31154448 0.14979638 0.3787697 0.58545774 -0.1490627 0.22990182
0.4622559 -0.26422197 0.2870114 0.5759817 -0.55789167 0.4721075 -0.31256223 0.52727973
-0.26166248 0.15519737 -0.29927373 0.26616913 0.12009365 -0.035901655 0.2945628 0.6538312
-0.4314695 -0.5167118 0.041241884 0.18580419 0.50441974 0.16785216 -0.24411967 0.37675074
0.26195395 -0.32384795 0.3245405 -0.018221514 0.17383558 0.15263319 -0.6559248 -0.5969074
0.5847691 0.64124715 -0.65862834 0.2875215 0.38474557 -0.0052979486 0.031410933 -0.6115811
-0.4558129 -0.3750416 -0.08347082 0.32708126 0.2659124 -0.35209772 0.019320427 -0.13203831
-0.5611976 0.14101598 -0.085544944 0.4097569

fc2.weight f4 [2, 100]
00000000: b6eb a3bd a445 cd3c f48e ba3d 0250 45bc
00000010: ca92 e1bb 3682 223d 335c 66bd e870 973c
00000020: e15b 933d 30e8 34bc 1348 18bd a2dc 3c3d
00000030: 290d c5bd b883 45bd 10f9 9a3c 0515 d8bc
00000040: 713c d1bd a8c3 733c b59d 203d 6730 bc3d
00000050: eb74 b93d 1f5b bc3d 1717 cabc cf2b 68bd
00000060: f0df 23bd 4b22 9ebd 2f69 00bd 5c3b cbbc
00000070: 6034 55bb 8460 08bc a3d8 923d 5626 56bd
00000080: 4ed4 d0bd e367 763d 8032 433c e2b5 85bd
00000090: c3e6 89bd 52b4 9bbd b805 883d ce07 1f3c
000000a0: 3cc3 90bd 858f 9a3d d000 f33b 90a4 83bd
000000b0: 791b 633d cda7 6dbd 001e 593b c9fa 68bd
000000c0: e392 4abd fe50 303d e144 d13d 7c07 523c
000000d0: 81a4 c13d e720 163d 9fa6 9b3d adb4 0abe
000000e0: 2748 a63d 4e83 763d 40bb 37bc b9d8 d63b
000000f0: 7ad2 7f3d 2ea6 fbbb 485b 41bd b4e7 d13d
00000100: 1049 61bc c0f0 303c 55ba bbbd 3613 0a3d
00000110: b524 8bbd c845 95bd c23c 7c3d 7c5e 0a3d
00000120: d892 e7bc 97e1 29bd e8e7 2039 6fa0 6fbc
00000130: 0fd9 c0bd 9dc3 52bd fd4d c6bd a713 2dbd
00000140: e031 85bd 539e 80bd 79ec c93d f587 563d
00000150: c61c 223e 96f8 3ebc f76f 893d 6db6 bcbd
00000160: 6b57 c8bd 13f3 a63d 80d9 703c b3c0 9e3d
00000170: 1026 1a3c b81b 423d 76d0 8cbd d044 8fbd
00000180: 866e 9dbd 1707 9bbc 309b 1e3c b4f2 01be
00000190: c715 debc 1f58 bb3d f6b1 9dbd 4a74 9d3d
000001a0: fc9d 41bb 6054 3f3b 001a 3bbb c39d b63d
000001b0: e5f1 8a3d 5bdf b2bd 711b 403a 2344 64bd
000001c0: 6971 a0bc d318 ccbc 5819 cb3d a943 7d3d
000001d0: 767d e13c a8fb 99bd 80e7 5bbd f448 b3bb
000001e0: aca1 13bd b571 85bd 2beb af3d d1c7 9cbd
000001f0: 152c 813d 3e47 913c d85b 6b3c dff8 7a3d
00000200: 282f a6bd 59ff e73a 262f 8a3b c654 543d
00000210: 168d ce3d 4a74 09bd 2d10 46bd 02c1 a9bd
00000220: a6ed 233d 430a 383d fa4c 1a3c e134 24bc
00000230: d7c2 b23c 4e08 713d ecfc af3c bb09 86bd
00000240: 630f c8bc 36c6 7b3d afdd c33d 7aca 62bd
00000250: d0d7 2b3c f22b 663d 0cdc 8b3d a6e5 253d
00000260: 329e aebd 3900 c33d f005 a8bc 9c36 b2bc
00000270: 7245 b93d 8a30 7bbc af13 ba3d 8cf3 e2bc
00000280: 3c2e 073d c311 12bd 909b 70bd ac7a e1bc
00000290: eecb 513d e7b4 6cbd 50ff 18bc 6a04 95bd
000002a0: 799e c43d dae1 593d b111 c43d e922 143d
000002b0: 9da4 76bd 0879 85bd 3199 2cbd 3527 bb3c
000002c0: e8c8 38bc 75ad c13d 92b5 523d 2069 0fbd
000002d0: f391 93bd 5984 35bd 4008 2b3b a355 9abc
000002e0: a152 79bd d73e fb3c ba21 1dbd 80ea b83a
000002f0: a7bb 99bd 8264 b4bd e1f4 a53d 9831 4d3c
00000300: f3be 7fbd 9b59 babb 3755 71bd 64cf ec3c
00000310: b325 b83d 9119 7cbc a7e4 c4bd b44f 6f3a
-0.08003943 0.025057621 0.091092974 -0.012043001 -0.0068839537 0.03967496 -0.05624027 0.018486455
0.07195259 -0.011041686 -0.03717811 0.04610885 -0.09621651 -0.04822132 0.01891759 -0.02637721
-0.102166064 0.014878191 0.0392129 0.091889195 0.090555035 0.091970675 -0.024669213 -0.056682404
-0.040008485 -0.077213846 -0.03135031 -0.024808578 -0.0032532439 -0.008323792 0.071702264 -0.052282654
-0.10196744 0.060157668 0.011913896 -0.06528832 -0.067334674 -0.07602753 0.06641716 0.009706451
-0.07068488 0.075469054 0.0074158683 -0.06427872 0.05544612 -0.058021355 0.0033129454 -0.056879792
-0.04945649 0.04304599 0.10218216 0.012819167 0.09455205 0.036652472 0.0760014 -0.13545485
0.08119231 0.060183816 -0.0112140775 0.006556597 0.062456585 -0.0076797223 -0.047206193 0.10249272
-0.01375033 0.010799587 -0.091663994 0.033709727 -0.06794111 -0.072887 0.06158138 0.033781514
-0.028268263 -0.041474905 0.00015345181 -0.014625653 -0.09416401 -0.051456083 -0.09682844 -0.04225507
-0.065036535 -0.06280198 0.09859557 0.052375752 0.15831289 -0.011655947 0.06710809 -0.092144825
-0.09782299 0.081518315 0.014700294 0.07751598 0.009408489 0.047389716 -0.06875698 -0.06995547
-0.07687096 -0.01892428 0.009680554 -0.1269024 -0.027109994 0.09147667 -0.07699959 0.07688196
-0.002954363 0.0029194579 -0.0028549433 0.089168094 0.06784419 -0.08734008 0.0007328308 -0.055729043
-0.019585328 -0.02491418 0.09916943 0.061832104 0.027525645 -0.07518703 -0.053687572 -0.005471343
-0.036042854 -0.065158285 0.085897766 -0.076552995 0.06307236 0.017734166 0.014365159 0.0612725
-0.08114463 0.0017700001 0.0042170463 0.05183866 0.10085504 -0.033558168 -0.04835527 -0.082887664
0.04002156 0.04493166 0.009417767 -0.010022373 0.021821423 0.05884581 0.021482907 -0.06544825
-0.0244214 0.061468326 0.09563767 -0.055368878 0.010488465 0.056194253 0.0682908 0.040502213
-0.08526267 0.09521527 -0.020510644 -0.021754555 0.09046449 -0.015331397 0.090857856 -0.027704023
0.033003077 -0.03566147 -0.058742106 -0.027524315 0.051219873 -0.05778971 -0.009338215 -0.072762325
0.09600539 0.053193904 0.09573687 0.036166105 -0.06021558 -0.065172255 -0.042138282 0.022845844
-0.0112783685 0.094569124 0.05144269 -0.035012364 -0.07205572 -0.04431567 0.0026097447 -0.018839663
-0.060869817 0.030669613 -0.038362242 0.0014107972 -0.07506495 -0.08808233 0.081033476 0.012524031
-0.062437963 -0.0056869513 -0.058919158 0.028907485 0.089915656 -0.015386955 -0.096139245 0.0009129003

fc2.bias f4 [2]
00000000: 6443 60bd 6e55 8f3c
-0.05475177 0.01749679
