scripts/save_model_throw_speed.pth (torch, 3705 bytes, 4 tensors)

fc1.weight f4 [100, 2]
-0.32422718 -0.18040958 0.1481842 0.2266735 -0.07993296 0.54123735 0.10080735 0.17724265
0.35886002 -0.495331 0.60002345 -0.41727352 -0.51897067 0.23556505 -0.05876931 -0.36751047
0.29415023 -0.024439622 -0.09084183 0.46992093 0.036286954 0.6159612 -0.06797504 0.13901564
0.332063 0.48696584 -0.15805642 0.4162668 0.12653798 0.19207968 -0.21993849 0.60298413
0.01764166 -0.48530814 0.6528938 0.39457196 0.27885568 -0.27663565 0.23811631 0.40477794
0.55294734 0.3134938 -0.21586436 -0.43808883 -0.08785291 -0.3072226 -0.55831635 -0.09927319
0.41142994 -0.1465431 0.4270779 -0.053548176 0.3055376 0.031690177 -0.36473393 0.19081631
0.57430947 0.5453217 -0.6017759 -0.34655505 0.22561848 -0.40018836 -0.30116895 0.31248868
0.12548271 -0.46636474 0.026442448 0.091762975 -0.031807087 0.32896414 0.35779214 0.5999102
-0.47431532 -0.113349564 -0.049751956 0.1637943 -0.4800006 -0.10909821 0.62892747 -0.008728075
-0.3647893 -0.15876667 0.35680363 -0.05315933 0.6054949 -0.05769362 -0.09899066 0.42824182
0.49229938 -0.5854234 0.48198324 -0.6979727 0.24364981 0.38516828 -0.5006519 0.6225436
0.5487209 0.10883628 -0.28963354 0.09293378 0.16101773 -0.41658983 0.56748044 -0.584424
-0.22204122 0.04564352 0.29072127 0.64552665 -0.12831347 -0.39054155 -0.09822502 0.4324994
0.11913224 0.1315452 -0.17096974 0.43483615 0.0630403 -0.42627776 0.06199013 0.606593
-0.48704663 0.64277834 0.6949302 -0.668915 0.24680136 0.6458723 -0.25394377 0.09288466
0.50928307 -0.5348843 -0.53604287 0.38565695 0.47015974 -0.20716166 -0.44868737 0.11997102
0.47670832 -0.22926208 0.11087213 0.12956281 -0.50822896 -0.4062962 0.27527782 -0.12992746
-0.12095302 -0.051991425 0.5948463 -0.4900714 -0.49251112 -0.3567133 -0.16846414 0.5908743
0.4424248 -0.49361983 0.06616195 -0.12203291 0.1778371 0.29923284 0.26842323 -0.5606308
-0.28995344 -0.5078999 0.2811876 -0.59320855 0.17446898 -0.2565878 -0.34765458 0.1413847
-0.5233262 -0.67019784 -0.6922582 0.43551478 -0.27887172 0.27666038 -0.4793749 -0.22011453
-0.623859 -0.66658205 -0.3887498 -0.58802164 0.36112043 0.61087674 0.26049316 -0.60765284
0.2756907 -0.38837796 0.026839787 -0.15887322 -0.11118229 -0.12910254 -0.41259173 0.006279095
0.012466279 -0.04074159 0.57445365 0.2621831 0.04374278 -0.50459385 -0.26582727 0.6368224
00000000: 1b01 a6be 4abd 38be 99bd 173e 191d 683e
00000010: e4b3 a3bd 888e 0a3f 1574 ce3d 197f 353e
00000020: 80bc b73e 069c fdbe 239b 193f e0a4 d5be
00000030: 43db 04bf f737 713e 17b8 70bd 552a bcbe
00000040: dc9a 963e 9a35 c8bc 480b babd 7a99 f03e
00000050: a1a1 143d a2af 1d3f 7f36 8bbd 1e5a 0e3e
00000060: 2904 aa3e 9653 f93e 8bd9 21be ec20 d53e
00000070: 2c93 013e 89b0 443e 8e37 61be 2b5d 1a3f
00000080: 3e85 903c 4f7a f8be 0c24 273f 5605 ca3e
00000090: 2cc6 8e3e 30a3 8dbe c3d4 733e 0e3f cf3e
000000a0: f58d 0d3f 4282 a03e 8c0b 5dbe 2e4d e0be
000000b0: 3aec b3bd 484c 9dbe d2ed 0ebf be4f cbbd
000000c0: f2a6 d23e 650f 16be f4a9 da3e 5555 5bbd
000000d0: 6d6f 9c3e 8fcd 013d 68be babe 5a65 433e
000000e0: f205 133f 349a 0b3f fc0d 1abf aa6f b1be
000000f0: 8808 673e 7de5 ccbe d132 9abe 84fe 9f3e
00000100: 8a7e 003e 5cc7 eebe d59d d83c 3aee bb3d
00000110: 2648 02bd fd6d a83e 8830 b73e b793 193f
00000120: 75d9 f2be d123 e8bd b5c8 4bbd b1b9 273e
00000130: a3c2 f5be e26e dfbd 6401 213f 3300 0fbc
00000140: aac5 babe bb93 22be f7ae b63e 99bd 59bd
00000150: b701 1b3f 2550 6cbd 9dbb cabd 8342 db3e
00000160: aa0e fc3e 4fde 15bf 82c6 f63e 57ae 32bf
00000170: 567f 793e c734 c53e b92a 00bf 045f 1f3f
00000180: f978 0c3f 8ee5 de3d d94a 94be 1154 be3d
00000190: d5e1 243e 434b d5be 6646 113f d09c 15bf
000001a0: c65e 63be b3f4 3a3d 6bd9 943e 3c41 253f
000001b0: 9b64 03be 10f5 c7be 332a c9bd 9070 dd3e
000001c0: 9bfb f33d c9b3 063e b112 2fbe d8a2 de3e
000001d0: 461b 813d 1441 dabe 5de9 7d3d ae49 1b3f
000001e0: 2d5e f9be 1f8d 243f f2e6 313f 033e 2bbf
000001f0: 7fb9 7c3e e357 253f eb04 82be 503a be3d
00000200: 6060 023f 2dee 08bf 1b3a 09bf d474 c53e
00000210: c7b8 f03e 3022 54be 5aba e5be 5eb3 f53d
00000220: 1d13 f43e aec3 6abe ed10 e33d 1dac 043e
00000230: 4b1b 02bf 0e06 d0be 37f1 8c3e b40b 05be
00000240: 38b6 f7bd f6f4 54bd d947 183f a3ea fabe
00000250: 6b2a fcbe 20a3 b6be dd81 2cbe 8a43 173f
00000260: 8185 e23e bdbb fcbe eb7f 873d 64ec f9bd
00000270: ee1a 363e 0c35 993e c56e 893e 8085 0fbf
00000280: c774 94be ba05 02bf d2f7 8f3e 84dc 17bf
00000290: ffa7 323e 7a5f 83be c8ff b1be 27c7 103e
000002a0: b5f8 05bf 1692 2bbf d537 31bf cbfb de3e
000002b0: 46c8 8ebe 6ea6 8d3e a070 f5be b465 61be
000002c0: 39b5 1fbf 1fa5 2abf 370a c7be 9688 16bf
000002d0: c7e4 b83e 6b62 1c3f 5c5f 853e 238f 1bbf
000002e0: 5527 8d3e 7ad9 c6be 1ddf db3c a9af 22be
000002f0: 8ab3 e3bd 7533 04be 393f d3be dec0 cd3b
00000300: 5d3f 4c3c a7e0 26bd 650f 133f dd3c 863e
00000310: a12b 333d 102d 01bf 831a 88be cb06 233f

fc1.bias f4 [100]
0.62501997 -0.4850161 -0.28899845 0.535422 0.4723608 -0.24196759 0.50840014 -0.19924417
0.03306053 0.2997071 -0.2812878 -0.7094982 0.28940016 -0.40960968 0.44686064 -0.24861722
0.49020267 -0.25025526 0.23145194 -0.2875634 0.012647626 -0.5532137 0.44380817 -0.7020799
0.46748325 -0.39537016 0.34026584 -0.5624106 -0.58119535 -0.5560094 -0.62214494 -0.6593368
0.67963123 0.0050062938 0.35276857 -0.3675421 -0.21957707 0.22798768 -0.39702338 -0.24717526
0.37732244 -0.15222727 0.04532403 0.2915167 0.50802755 -0.51988274 0.010362119 0.65529954
0.53750926 0.20998523 -0.22806038 -0.054055188 -0.6242426 0.57849795 0.20669143 -0.0663155
-0.082878366 0.5893589 0.18013832 -0.17464222 0.26475313 0.6845603 0.63371146 -0.6918207
-0.52803046 0.04976418 0.5566127 0.43770054 -0.18941957 0.37425944 -0.2694795 0.4577968
-0.59228116 0.48876646 0.5646433 -0.49652708 0.26172274 -0.425667 0.57196194 0.21343409
-0.047210537 -0.4384578 0.6556938 0.15081102 0.5270599 -0.055483326 -0.50458103 -0.36050838
0.14065094 0.6876126 0.65769625 0.024853744 -0.55856776 -0.03601642 0.13539363 0.12075713
0.12104903 0.4702304 -0.20413025 0.028307898
00000000: 4f01 203f 0854 f8be 9bf7 93be 6b11 093f
00000010: 46d9 f13e 5ac6 77be 8326 023f aa06 4cbe
00000020: 7a6a 073d 3673 993e f404 90be ada1 35bf
00000030: 422c 943e 5cb8 d1be ebca e43e 8395 7ebe
00000040: d8fb fa3e 7521 80be bd01 6d3e 833b 93be
00000050: fd37 4f3c 6a9f 0dbf d33a e33e 82bb 33bf
00000060: f759 ef3e f56d cabe 5337 ae3e 24fa 0fbf
00000070: 38c9 14bf a256 0ebf e444 1fbf 4cca 28bf
00000080: 50fc 2d3f d60b a43b 159e b43e 7a2e bcbe
00000090: d0d8 60be 9a75 693e a646 cbbe 831b 7dbe
000000a0: 6830 c13e 77e1 1bbe b1a5 393d ad41 953e
000000b0: 180e 023f 0917 05bf e1c5 293c b6c1 273f
000000c0: 359a 093f 5e06 573e a988 69be f968 5dbd
000000d0: 5dce 1fbf 7118 143f eba6 533e 6cd0 87bd
000000e0: 22bc a9bd 3ae0 163f 2e76 383e 69d5 32be
000000f0: b98d 873e 583f 2f3f ea3a 223f 291b 31bf
00000100: 012d 07bf 86d5 4b3d 2b7e 0e3f 491a e03e
00000110: 34f7 41be ef9e bf3e 38f9 89be 5864 ea3e
00000120: bd9f 17bf 993f fa3e 778c 103f cc38 febe
00000130: 8600 863e 06f1 d9be 196c 123f 778e 5a3e
00000140: d65f 41bd 8a7d e0be 8ddb 273f 346e 1a3e
00000150: 66ed 063f 7c42 63bd 392c 01bf 8e94 b8be
00000160: cd06 103e 6107 303f c85e 283f 149a cb3c
00000170: 4cfe 0ebf f485 13bd a1a4 0a3e 844f f73d
00000180: 8ee8 f73d 0ac2 f03e 8507 51be f7e5 e73c

fc2.weight f4 [2, 100]
-0.033580136 0.060604893 0.022377683 -0.008621561 0.08973991 -0.070079975 -0.13146271 0.0007806659
0.054458275 -0.081650406 0.05614552 -0.02486234 -0.07682102 -0.080016404 -0.08531801 -0.066650085
0.021907259 0.034216836 0.07190531 -0.013809897 0.057883263 0.016376305 0.06907306 -0.0011243463
0.06887633 0.044831064 0.03267194 0.082109414 -0.06525476 0.029391397 0.0143103 0.058487643
0.0019693018 0.048201077 -0.07502271 0.060242485 -0.020357406 -0.022629991 -0.08210792 -0.048243865
0.045613825 0.11158581 0.11522364 0.0080272285 -0.053133965 0.08327935 0.048691306 0.034090042
0.07738866 -0.026699621 0.006424284 0.019003307 -0.015092611 0.037133258 -0.09189099 0.052127723
-0.08121816 0.00055604614 0.031353224 0.024483608 -0.07252167 -0.060614586 0.025053035 -0.060599387
-0.06378224 0.010383912 -0.031341385 -0.04594311 -0.083236806 0.08939714 0.008640707 -0.007116836
0.09231844 -0.008808827 -0.032778192 -0.0730479 0.035204567 0.025875866 -0.06943992 0.015885472
0.02185185 0.022070527 -0.05613817 -0.14690042 0.046143282 0.024995763 -0.07633722 -0.043002464
0.08101378 0.012398732 0.08487704 -0.06841246 -0.06892236 0.08889192 0.067028575 -0.077994846
-0.06015822 0.017019283 0.05971178 -0.028466828 0.031141555 -0.022114946 -0.0050754533 0.041623432
-0.039295603 0.0948412 0.013481879 0.016962612 0.012317933 -0.07279163 -0.056628317 -0.015294458
-0.047197215 -0.0892525 -0.061547633 0.00471823 0.042036843 0.06827666 0.08730997 -0.026124109
0.053051125 0.078163266 0.052389085 -0.024289323 -0.008841748 -0.05532364 -0.082257845 -0.07428049
-0.0087041985 0.06142999 0.036146857 0.030526122 0.017664695 -0.04257476 -0.01830187 -0.07106544
-0.04410286 0.063935526 0.009989798 0.08218632 -0.004745591 0.01123837 0.05366504 0.04945276
0.055231787 0.080111645 0.012350575 0.051616363 -0.016902195 0.021599783 -0.05648004 -0.056648146
-0.03433479 0.045693267 -0.040489137 0.076010905 -0.05912568 -0.045483965 -0.09484477 0.016606579
0.021222021 -0.0460894 -0.0772949 0.082012355 0.08675517 0.017414104 0.026452046 -0.012554398
0.035066426 0.030218445 -0.031222844 -0.028215379 0.09085379 0.016118348 -0.088087395 0.0696898
-0.04584333 0.013692141 0.080045044 0.09620515 0.0019465685 0.027635802 0.09544734 -0.079073004
0.09566211 0.0534801 0.053921055 0.017359449 0.09372307 -0.07804072 0.040846635 0.027584469
0.07447492 0.010920203 0.02273413 0.0320943 -0.09071902 -0.006402687 -0.057934072 0.06806944
00000000: 538b 09bd d63c 783d 6751 b73c 7341 0dbc
00000010: 8fc9 b73d 1786 8fbd 299e 06be 9aa5 4c3a
00000020: a40f 5f3d 5438 a7bd d8f8 653d 1bac cbbc
00000030: 5754 9dbd a4df a3bd 35bb aebd d77f 88bd
00000040: da76 b33c f426 0c3d 1743 933d e842 62bc
00000050: 0017 6d3d 9a27 863c 2d76 8d3d cd5e 93ba
00000060: 090f 8d3d c7a0 373d 03d3 053d fb28 a83d
00000070: 4aa4 85bd 3ac6 f03c c075 6a3c bd90 6f3d
00000080: 670f 013b 7e6e 453d 82a5 99bd d3c0 763d
00000090: 93c4 a6bc 8862 b9bc 3228 a8bd 5c9b 45bd
000000a0: 90d5 3a3d 1a87 e43d 5ffa eb3d a384 033c
000000b0: 00a3 59bd 5d8e aa3d 8970 473d 00a2 0b3d
000000c0: f27d 9e3d 2ab9 dabc cd82 d23b d3ac 9b3c
000000d0: 0047 77bc 0b19 183d 5831 bcbd e183 553d
000000e0: b555 a6bd a0c3 113a 3d6c 003d d991 c83c
000000f0: 3e86 94bd 0047 78bd 063c cd3c 1037 78bd
00000100: 43a0 82bd 4921 2a3c d35f 00bd d82e 3cbd
00000110: 0f78 aabd d915 b73d c091 0d3c 5934 e9bb
00000120: 7311 bd3d e652 10bc 6d42 06bd 239a 95bd
00000130: aa32 103d a0f9 d33c 8436 8ebd 4022 823c
00000140: a702 b33c 40cd b43c 23f1 65bd 106d 16be
00000150: bd00 3d3d eac3 cc3c b056 9cbd 5a23 30bd
00000160: 8dea a53d 0d24 4b3c 03d4 ad3d d51b 8cbd
00000170: 2b27 8dbd f80c b63d 4746 893d c3bb 9fbd
00000180: 7768 76bd 066c 8b3c 5794 743d 4433 e9bc
00000190: 931c ff3c 672a b5bc fd4f a6bb 557d 2a3d
000001a0: 6df4 20bd 1a3c c23d 19e3 5c3c 2df5 8a3c
000001b0: 28d1 493c c713 95bd 18f3 67bd 9b95 7abc
000001c0: de51 41bd 04ca b6bd 5f19 7cbd 629b 9a3b
000001d0: d32e 2c3d a2d4 8b3d 92cf b23d 3a02 d6bc
000001e0: 234c 593d 1014 a03d f095 563d 67fa c6bc
000001f0: fbdc 10bc 0b9b 62bd cd76 a8bd 5f20 98bd
00000200: 0e9c 0ebc 039e 7b3d ba0e 143d eb11 fa3c
00000210: 8db5 903c df62 2ebd ceed 95bc c28a 91bd
00000220: 33a5 34bd a1f0 823d 40ac 233c 4d51 a83d
00000230: e780 9bbb 2421 383c dfcf 5b3d fa8e 4a3d
00000240: ba3a 623d 9311 a43d 115a 4a3c ae6b 533d
00000250: 7976 8abc 07f2 b03c 9d57 67bd e307 68bd
00000260: a3a2 0cbd dd28 3b3d f0d7 25bd 9bab 9b3d
00000270: c52d 72bd 654d 3abd fa3d c2bd 850a 883c
00000280: ced9 ad3c 3dc8 3cbd ca4c 9ebd 18f6 a73d
00000290: b2ac b13d 06a8 8e3c f6b1 d83c f6b0 4dbc
000002a0: d0a1 0f3d ac8c f73c 0dc7 ffbc f023 e7bc
000002b0: 8d11 ba3d a00a 843c 2a67 b4bd 87b9 8e3d
000002c0: 37c6 3bbd 0055 603c a8ee a33d 3507 c53d
000002d0: 0024 ff3a 7a64 e23c e579 c33d 07f1 a1bd
000002e0: 7fea c33d f30d 5b3d 53dc 5c3d 6735 8e3c
000002f0: e2f1 bf3d d0d3 9fbd cd4e 273d d3f8 e13c
00000300: 4f86 983d a7ea 323c ed3c ba3c 5075 033d
00000310: e5ca b9bd a2cd d1bb 474c 6dbd fe67 8b3d

fc2.bias f4 [2]
0.043434136 0.07203614
00000000: fee7 313d af87 933d
