scripts/save_model_throw.pth (torch, 2456 bytes, 4 tensors)

fc1.weight f4 [20, 2]
00000000: 05d0 74be 26ea 053f 9437 8b3e 1b16 5cbe
00000010: 65a3 dfbe 3f44 a83e 20a1 b8bd 935b c3be
00000020: ea99 873e bb2f ba3e 6723 2cbf e6af d03e
00000030: a30a da3e 068f 2c3e c9f3 833e 0121 1c3d
00000040: 901c c9bd fc8e 5d3e 4d03 843d 9894 05be
00000050: cf25 a33e 16e6 b5bd 8ede cbbd 663d 463d
00000060: 6ad7 0fbe 5835 2d3f 12ec 02bf 80ab 203f
00000070: ae65 873e d4bf 973d 9a06 69be c088 c0bc
00000080: 806b d6bb c0a0 b43c c22f dc3e 77c0 c13e
00000090: 68d2 eebe 78e0 0abe acb4 dc3d d8a7 793e
-0.23907478 0.5231041 0.2719084 -0.21492808 -0.43679348 0.32864568 -0.09015107 -0.38155803
0.26484615 0.3636454 -0.6724152 0.407592 0.4258624 0.16851434 0.2577193 0.038117412
-0.09819901 0.21636575 0.06445942 -0.13044965 0.31864783 -0.08881776 -0.09954558 0.048398398
-0.14047018 0.6765952 -0.51141465 0.6276169 0.26444763 0.07409635 -0.22756425 -0.023502707
-0.0065435767 0.022049308 0.43005186 0.37842152 -0.46644902 -0.1356219 0.10776648 0.24380434

fc1.bias f4 [20]
00000000: fc5f c13e 0c32 d8be c90f 903e 30c4 b5bd
00000010: ca99 093f 989f a0bd 3768 a03c 21a6 a33e
00000020: edd9 cdbe a9dc 4d3e dce3 b13e b9f9 cf3e
00000030: 3e27 1d3f 21b0 af3e ccfd f6bd 8610 a7be
00000040: 8e60 febe 1027 053f ea1a f53e 5fe3 323f
0.37768543 -0.42225683 0.28137043 -0.088753104 0.5375029 -0.0784294 0.019580944 0.31962684
-0.40205327 0.20103706 0.34744155 0.4062021 0.61388004 0.34314063 -0.12060127 -0.32629794
-0.4968304 0.5201273 0.47872096 0.6987819

fc2.weight f4 [2, 20]
00000000: 2eba 5fbe eeb1 1ebc eff8 e6be 2a28 063e
00000010: 00d7 d5bd 304e b13d e6df c63d 5fb5 2ebe
00000020: ccde 963d d136 d33c 85b1 c83d 4997 0bbd
00000030: e08e 48be 3679 43be 59b3 89bd 3607 1bbe
00000040: c0a3 023e 8873 46be ea5b e4bd 77d1 063e
00000050: c5d6 f03c 75da 0e3e 0d38 6ebe 42a2 5fbe
00000060: a20e 7bbb 20b4 0b3c 7baf 143e c1fd 6a3b
00000070: 1c51 c73d 17ed 1ebd 406a 5a3d aa46 14be
00000080: e084 90bd 2ed2 c33d 97bd e93d 2091 80bc
00000090: ee7d 4d3e 1aec c23d a0f1 8b3d 7356 4fbd
-0.21848366 -0.009685976 -0.45111796 0.13101259 -0.104413986 0.08657491 0.09710674 -0.17061375
0.07366714 0.025782974 0.09799484 -0.034079824 -0.19585752 -0.19089207 -0.06723661 -0.1513947
0.12757778 -0.19380009 -0.11150344 0.13165842 0.029399285 0.13950522 -0.23263569 -0.2183924
-0.0038308282 0.008526832 0.14520065 0.0035856816 0.09732267 -0.038800325 0.053323984 -0.14480081
-0.07056594 0.09561573 0.114131145 -0.015694201 0.2006757 0.09517689 0.06833196 -0.050619554

fc2.bias f4 [2]
00000000: 7447 2a3e 8d41 4f3e
0.1662882 0.2023985
