scripts/save_model_throw.pth (torch, 2005 bytes, 4 tensors)

fc1.weight f4 [20, 2]
000000 e7 53 30 bf eb df db be 7d 70 a5 3e 7f 75 64 be
       -0.68878025 -0.42944273 0.32312384 -0.22310446
000010 b0 2e 94 be 0c e9 91 be 94 fd c9 be e3 45 1a bf
       -0.2894187 -0.28498113 -0.39451277 -0.6026289
000020 20 0c cb 3d ef dd 11 bf 0e 3d 07 3f 0a 49 01 bf
       0.09914422 -0.5697927 0.5282754 -0.50502074
000030 8c 0b b9 3e 0a cc 9e 3e d5 3a 0d bf 86 f7 9d 3e
       0.36141622 0.31015044 -0.55167896 0.30852908
000040 39 e5 a5 bd b7 c6 ae 3e 7e 74 a9 3e c0 f9 30 bf
       -0.081003614 0.34135982 0.3309669 -0.6913109
000050 b7 f7 a6 be d8 43 f7 3e 14 1f 59 be 77 1c c5 3d
       -0.32610866 0.48293948 -0.21203262 0.0962457
000060 ff 3a 17 3f b0 ca 11 bf 06 fa 70 3f ce 6c 59 be
       0.59074396 -0.569499 0.94131505 -0.21232912
000070 ed 69 15 3f 23 9f b4 be 08 01 ac 3e 4a 5a c6 be
       0.58364755 -0.35277662 0.33594537 -0.3874076
000080 43 2d be be c4 e4 75 bd ee f7 0b 3c 07 49 b8 3e
       -0.37143907 -0.06003262 0.008542998 0.35993215
000090 f2 b8 29 3f aa af 98 3e 6f c7 0b 3f e3 0c 1c 3f
       0.6629783 0.2982152 0.54601187 0.60957164

fc1.bias f4 [20]
000000 05 ad 4a be 98 73 36 be 11 d1 ba be 84 d1 05 3f
       -0.19792564 -0.17817533 -0.3648763 0.5227282
000010 70 f6 f4 3e ca 08 b6 3a a3 62 af 3e 40 f8 09 bd
       0.47844267 0.0013888117 0.3425494 -0.033684015
000020 d9 b7 92 3e 72 fc 33 be 00 2f 97 3e e6 9e 53 3d
       0.2865589 -0.17576769 0.29528046 0.05166521
000030 bf 39 fb bd ac 48 b0 3e 05 dd 2e bf 08 0d 2e bf
       -0.122668736 0.34430444 -0.68306 -0.67988634
000040 00 5d 21 3f f8 53 06 bf 94 17 fa 3e 04 b7 20 bf
       0.6303253 -0.52471876 0.48846114 -0.6277926

fc2.weight f4 [2, 20]
000000 9f 85 40 3e 5a 55 69 bd f0 eb b3 bd eb 39 39 bd
       0.18800972 -0.056966163 -0.08785236 -0.04522125
000010 4f 98 41 be 88 78 ed bd 94 a7 02 3e d7 73 d4 3d
       -0.18905757 -0.11595255 0.12759238 0.10373657
000020 55 7d 87 bc 3a 9b 6e bd 16 e0 4b bd cb 43 2f bd
       -0.016539255 -0.058253504 -0.049774252 -0.04278926
000030 51 ae a0 3d 54 c2 80 3e 93 c3 13 be ca b4 d8 bd
       0.07845748 0.2514826 -0.14430074 -0.10581358
000040 b6 12 e5 3d d3 19 34 3d a3 0d 04 3e 21 e1 b4 3d
       0.111852095 0.04396994 0.12895827 0.088320024
000050 3b fe 84 bd 2a 26 3f 3d f2 44 51 3d bc 2a a7 3d
       -0.06493803 0.046667255 0.051091142 0.08162448
000060 99 f6 28 be b0 e1 05 3e 14 97 63 bd 32 24 45 be
       -0.1650032 0.13074374 -0.055564 -0.19252089
000070 41 4f 9e be b8 93 19 3e 4b af 3c 3d ab 2e 05 be
       -0.3091984 0.14997756 0.04606561 -0.13006084
000080 34 b6 b2 3d c7 35 be be 8a 42 2e 3e 4e 4f 21 3e
       0.08726159 -0.37150404 0.1701757 0.15752909
000090 8c 9e 88 bd ff 22 1d 3d 1e e8 c6 be 29 6e 3d be
       -0.066708654 0.038363453 -0.38848966 -0.18499054

fc2.bias f4 [2]
000000 54 11 81 3e fd 4b de bd
       0.25208533 -0.10854337
