scripts/save_model_throw.pth (torch, 2456 bytes, 4 tensors)

fc1.weight f4 [20, 2]
-0.5441201 -0.16267467 -0.34574574 0.056322042 -0.5443536 -0.027619362 -0.21866047 0.1498993
0.41677186 -0.11659089 0.3140033 -0.23999141 0.4003164 0.5985193 0.69704723 -0.7110779
-0.01930318 -0.19196121 -0.39234984 0.5717424 -0.12988818 0.42072794 -0.4947693 0.6096726
0.21793474 0.39254224 -0.27814752 -0.0008497834 -0.54781216 -0.4240229 -0.012902081 -0.04664321
0.36681238 0.43209854 0.13527277 -0.1825773 0.03713273 0.11849966 0.0047206283 -0.3741588
00000000: 744b 0bbf 3094 26be 9605 b1be f1b1 663d
00000010: c25a 0bbf 0042 e2bc 88e8 5fbe 347f 193e
00000020: 1f63 d53e 34c7 eebd 0ac5 a03e 4fc0 75be
00000030: 45f6 cc3e 9038 193f b071 323f 3409 36bf
00000040: b421 9ebc 7b91 44be 14e2 c8be b65d 123f
00000050: 6801 05be a769 d73e 6752 fdbe 8113 1c3f
00000060: 492a 5f3e 4cfb c83e 5a69 8ebe 00c4 5eba
00000070: 6b3d 0cbf 8819 d9be 4063 53bc f30c 3fbd
00000080: d5ce bb3e 053c dd3e f284 0a3e 8bf5 3abe
00000090: 7d18 183d f3af f23d 80af 9a3b be91 bfbe

fc1.bias f4 [20]
0.4709347 0.49827018 -0.561191 -0.673994 -0.5382678 0.17126487 -0.20544696 -0.18315446
0.23151381 -0.18376075 -0.4271127 -0.11086245 -0.5129047 -0.34037104 -0.5284108 0.31017047
0.210264 0.32898703 -0.6073149 -0.035963416
00000000: 5a1e f13e 451d ff3e 37aa 0fbf df8a 2cbf
00000010: ebcb 09bf 0f60 2f3e b060 52be d88c 3bbe
00000020: f511 6d3e c72b 3cbe 84ae dabe da0b e3bd
00000030: b94d 03bf 1d45 aebe ee45 07bf aace 9e3e
00000040: 724f 573e fd70 a83e fd78 1bbf 604e 13bd

fc2.weight f4 [2, 20]
-0.12088854 0.058960564 -0.0954832 0.09343925 0.08280177 -0.00209572 -0.04460603 0.488066
0.14350247 0.38051406 0.35503492 0.3581057 -0.012613527 -0.03230089 -0.1510473 -0.010914817
0.1752381 -0.18215741 0.0810939 0.048959345 -0.22014621 -0.07566729 0.015141681 0.09487909
0.06821403 0.017006358 0.103162564 0.275269 -0.05043207 -0.04520305 -0.10003157 -0.06391674
0.11940707 0.21396753 -0.09925345 0.057342548 0.23150186 0.17717333 -0.11169568 -0.22195476
00000000: 6994 f7bd a280 713d b28c c3bd 145d bf3d
00000010: f993 a93d 5958 09bb d0b4 36bd c9e3 f93e
00000020: 50f2 123e bdd2 c23e 23c7 b53e a159 b73e
00000030: f7a8 4ebc f04d 04bd 25ac 1abe 10d4 32bc
00000040: 9e71 333e 7987 3abe 8f14 a63d 9889 483d
00000050: 026e 61be 74f7 9abd d014 783c f84f c23d
00000060: ccb3 8b3d eb50 8b3c e546 d33d 0ff0 8c3e
00000070: dc91 4ebd d526 39bd 5add ccbd c8e6 82bd
00000080: b28b f43d 4e1a 5b3e 6545 cbbd 05e0 6a3d
00000090: d30e 6d3e ed6c 353e b4c0 e4bd 1c48 63be

fc2.bias f4 [2]
0.07366349 0.123332195
00000000: e2dc 963d 9795 fc3d
