scripts/save_model.pth (torch, 18923 bytes, 9 tensors)

lstm.weight_ih_l0 f4 [60, 2]
000000 af 81 21 3e 5f f8 11 3e fc 85 b8 3d 88 0e 3e 3e
       0.15772127 0.14254902 0.090099305 0.1856023
000010 24 77 5e bd 92 85 bc bd 44 3d b6 bc 09 2e 8b bd
       -0.05431284 -0.09205164 -0.02224601 -0.0679589
000020 15 65 0c be a6 a9 26 3d 01 54 34 be e6 6d a3 bd
       -0.13710435 0.040689133 -0.1761017 -0.07979946
000030 f1 91 fa bd 42 6f b2 bd eb 65 4d 3e 8e 00 d9 bd
       -0.12234867 -0.08712627 0.2005841 -0.10595809
000040 71 88 18 3e 59 df fe 3c 83 07 02 bc 8b e0 52 3d
       0.14895798 0.03111236 -0.007936361 0.051483672
000050 48 f1 4e 3e 7e 7d 5e 3d c2 27 88 bd 12 b2 14 be
       0.20209229 0.054318897 -0.06648208 -0.14521053
000060 55 37 5e 3c 2b f3 90 3d f5 28 80 bd a3 e6 2e 3d
       0.013562997 0.070776306 -0.06257812 0.04270042
000070 36 af a0 bd ba f8 1b 3e b6 ac 0f be 38 21 2c 3e
       -0.07845919 0.152316 -0.14030728 0.16809547
000080 de 5b 4a be 3c 39 e9 bc f7 11 5f 3d ff bf 2a 3e
       -0.19761607 -0.028469674 0.054460492 0.16674803
000090 16 64 39 3e 01 be 97 3d 96 d9 3b 3d 16 a1 25 bd
       0.18104586 0.07409287 0.045861803 -0.040436827
0000a0 ea df 21 be 5c 77 10 be 4f 84 3a be b2 00 47 3e
       -0.15808073 -0.14108032 -0.18214534 0.19433859
0000b0 99 40 7e bb 03 81 73 3d 2c 20 71 3d 08 69 fc 3d
       -0.0038795827 0.059449207 0.058868572 0.123247206
0000c0 e3 c8 3b 3e 36 6c 11 be 71 79 bc bc 55 ed df bd
       0.18338351 -0.14201435 -0.023007127 -0.10933939
0000d0 ee d3 3e be 81 bd 6f 3c 16 f1 13 3d 0d 6f cc 3d
       -0.18635532 0.014632584 0.03611859 0.09982119
0000e0 7c ab f3 bd cd 23 50 3d 53 d0 1f 3e a1 fd ee bd
       -0.118979424 0.050815392 0.15606813 -0.116694696
0000f0 88 9f ac 3d c8 13 ee 3c e3 dc 52 3e 2b 81 2d bc
       0.08428866 0.029062167 0.20592074 -0.010589878
000100 9f 54 8f bd 2e 2e 85 3d 84 74 25 be a2 44 94 3d
       -0.06998562 0.06502949 -0.16157728 0.07239653
000110 19 79 06 bd 9f e8 86 3d 84 52 fc 3c 66 16 ac 3c
       -0.03283033 0.06587338 0.030801065 0.021006774
000120 45 2b 4f 3e cd 42 49 be 9c 3e 3f 3d cb 42 87 bd
       0.2023135 -0.19654389 0.04669057 -0.066045366
000130 4e cf 67 3c c8 8b ed bd ce 04 3d be 59 c0 ca bc
       0.014148546 -0.11598927 -0.18458864 -0.024749922
000140 7a 93 49 3e ce a5 39 be 09 11 9b 3d 51 b2 a9 bc
       0.19685164 -0.18129656 0.075716086 -0.02071491
000150 dc 50 40 3e 28 02 34 3e 8b 2b 0b 3e 7c 67 fa 3c
       0.18780845 0.17578948 0.13590829 0.030566923
000160 f9 01 40 bc 73 46 27 3e 50 7a 55 3e 6b ce bd bc
       -0.01171922 0.16335468 0.2084744 -0.023169717
000170 ae c9 10 3d 9b f9 4f be 8b fe ad 3c 19 30 17 3d
       0.035348587 -0.2031006 0.02123954 0.036911104
000180 cd 62 21 3d 16 4c 11 be fe 49 19 3e 9f 75 38 3e
       0.039400864 -0.1418918 0.14969632 0.18013619
000190 4d dc fe bc bd e9 19 3e 20 2f 0c be 6f 2c dc 3a
       -0.031110907 0.1503057 -0.13689852 0.001679791
0001a0 8b 3b 22 3e db f2 2b be a9 ee 20 bd 5f bb 42 3e
       0.15843026 -0.16791861 -0.039290104 0.19016789
0001b0 1b 84 3a 3e 30 cf e9 bd 73 c1 1c 3e 77 e4 e5 bd
       0.18214457 -0.11416471 0.1530817 -0.11225217
0001c0 2d 36 a3 bd 14 ef 2f 3e 32 1a 28 3e f6 25 f5 3c
       -0.079693176 0.17181045 0.16416243 0.029925328
0001d0 f0 e3 64 3e 2f a9 d0 3d e9 72 7b 3c 6d b4 aa bd
       0.22352576 0.10188519 0.015347221 -0.08335195

lstm.weight_hh_l0 f4 [60, 20]
000000 79 66 61 3d 36 1a 36 3e 55 1a 8a bd 5a 93 d0 3d
       0.055029366 0.17783436 -0.06743304 0.10184355
000010 00 d4 40 3b 61 1a 13 be f5 3e 91 bd 04 fb 31 be
       0.0029423237 -0.14365532 -0.07092086 -0.17380911
000020 8e 1d 05 3d 56 a6 0d 3d 3f fa c0 bd 05 6f 7d 3c
       0.03249889 0.03458246 -0.09422731 0.015468364
000030 1c 63 0d be 3a 80 c8 3d 14 36 42 be 32 f0 26 be
       -0.13807338 0.09790082 -0.18965942 -0.16302565
000040 76 c0 33 3e 37 65 00 3e a2 b6 5c 3e f3 d1 d3 bd
       0.17553887 0.1253861 0.21554044 -0.10342779
000050 1e 26 ae 3d 62 91 d1 bb 04 06 0b 3e d8 7e d7 bd
       0.08503364 -0.006395505 0.13576514 -0.105222404
000060 c7 ff 12 bd 9f 95 2b bd 48 84 22 be 2a 0e 2c 3e
       -0.03588846 -0.041890737 -0.15870774 0.16802278
000070 07 96 8a bd 21 73 c2 bd 14 8f 81 3d d4 56 28 3e
       -0.06766897 -0.09494615 0.06326118 0.16439372
000080 24 2a 52 bc 7f f0 49 be f1 a8 35 bd 9d f2 08 be
       -0.01282743 -0.19720648 -0.04435057 -0.133738
000090 95 49 35 bb 85 43 0d 3e b3 d1 0f be e9 f2 3f 3d
       -0.0027662267 0.13795288 -0.14044838 0.046862517
0000a0 a9 9c 2a bb 08 00 26 bd d2 21 5d 3d a5 c5 9c bd
       -0.0026033318 -0.040527374 0.05398733 -0.07654885
0000b0 4e cf ce bd 06 cf e7 3d 9a 39 26 3c 33 2e 8c 3d
       -0.10098134 0.113187835 0.010145569 0.06844749
0000c0 a2 fb fb 3d 87 b7 3c 3e 29 ec f4 bd 06 0e 27 be
       0.123038545 0.18429385 -0.119591065 -0.16313943
0000d0 e6 e2 59 be 53 e7 b0 bd f0 e1 c7 3d 0a 9c 08 bd
       -0.21277961 -0.086378716 0.09759891 -0.033351935
0000e0 a9 92 03 3e d6 3b a3 bc df 64 62 be c6 31 57 3e
       0.12848915 -0.019925993 -0.22108792 0.21015081
0000f0 72 c5 ea bd 36 78 31 3e f2 f2 5a bd e6 d4 7a 3c
       -0.11463441 0.17331013 -0.053454347 0.015309548
000100 3e 1e a2 bd a8 c7 c1 bc 31 15 a9 3c ce d8 04 3e
       -0.079159245 -0.023654774 0.020639988 0.1297333
000110 d2 6c 38 be 74 37 00 be b9 92 f0 3d c0 04 9a bd
       -0.18010262 -0.12521154 0.11746735 -0.07520437
000120 9b 0f 49 3e 5a 6a 56 3e fb 58 61 be 96 f0 b7 bb
       0.1963486 0.20939007 -0.220066 -0.005613397
000130 cd 26 19 be f8 54 4d bc bc 65 57 be aa d6 63 3e
       -0.14956208 -0.012532465 -0.21034902 0.22249857
000140 db a6 45 3e d4 c2 c2 3d 3e e0 37 be 65 b7 bd bd
       0.19301932 0.09509817 -0.17956635 -0.09263495
000150 a4 1b 59 3e 50 95 57 be f5 7e cc 3d 88 ba 0b be
       0.2120195 -0.21053052 0.09985153 -0.13645375
000160 22 02 8f bd 5b 90 db bd 70 f6 22 be 5e d7 3e 3e
       -0.06982829 -0.10720893 -0.15914321 0.18636844
000170 eb 71 04 be 6c ab 45 3e 41 3d 1d 3d 7a c5 c9 bd
       -0.12934081 0.19303674 0.038388494 -0.09852119
000180 4b a5 4b be 29 64 90 bb b7 30 63 3c cc 92 fc 3d
       -0.19887273 -0.0044064713 0.013866595 0.12332687
000190 52 65 ab bb f3 d8 51 39 24 5b 4e be be f2 27 3e
       -0.005230584 0.00020012613 -0.20151955 0.16401193
0001a0 2f 18 d9 3d 46 f6 43 be 6a a4 d3 3d 8c 97 40 be
       0.10600316 -0.19136915 0.10334094 -0.1880781
0001b0 ab a4 1d 3e 29 ea 70 bd 04 9a ff 3d bd 5f 18 3e
       0.15394847 -0.058817063 0.12480548 0.14880271
0001c0 25 49 3b be 41 43 ab bc 72 3d 08 be 6f 0b 4b bd
       -0.18289621 -0.020906093 -0.1330469 -0.04957145
0001d0 94 57 0d 3e 8d f2 06 be 47 ab bf bc c8 4d f2 3d
       0.1380294 -0.13178463 -0.023397101 0.11831242
0001e0 89 ae ec 3d 24 47 01 3e 9a c1 58 be 80 91 e7 3d
       0.115567274 0.12624794 -0.21167603 0.11307049
0001f0 41 04 2a be d4 1f 74 3d 19 95 d0 bd 0d 5f 4f be
       -0.16603185 0.059600666 -0.10184688 -0.20251103
000200 58 83 e0 bd cb bd 55 3e 93 8c e6 3d 86 35 33 be
       -0.10962552 0.20873182 0.11257281 -0.17500886
000210 44 d0 aa bd 3f f9 0c bc 2f 5c f0 bd 34 6b 56 3e
       -0.08340505 -0.008604347 -0.117363326 0.20939332
000220 60 1d e4 bc 91 9c 7c bd ed de 1c be c9 72 4b 3d
       -0.027846038 -0.06167275 -0.15319414 0.049670015
000230 be 5a 9b bd 06 f3 e0 3d 95 a9 07 be 92 5c 96 bd
       -0.07585667 0.10983853 -0.13248284 -0.07341875
000240 be 72 17 be 20 37 8a bd a0 9c 25 3e 0a 31 07 bd
       -0.14789864 -0.067487955 0.16173029 -0.03300575
000250 85 7c 40 be 14 73 2e 3e 1d 3d e7 3d d2 5d 0b 3d
       -0.187975 0.17036086 0.11290953 0.03402502
000260 ad 62 87 3d e0 98 01 3c 9e 2d 5b 3e 4c eb 96 bd
       0.06610618 0.007909983 0.2140412 -0.07369098
000270 59 ad 90 3d 3e 5f 06 3e 61 bb 3b be 2d 62 40 3e
       0.070643134 0.1312227 -0.18333198 0.18787451
000280 bf 0b 2a 3e 83 0b f1 bc e1 ce a9 3d 3b ef 18 be
       0.16606043 -0.029424435 0.08291412 -0.14935009
000290 be a0 5a be ca 35 5b bd b9 59 1a 3e be 50 5d 3e
       -0.21350381 -0.053518094 0.15073289 0.21612832
0002a0 6d 6d 49 3e ea 82 7a 3c 48 34 16 3e 22 87 08 3e
       0.19670649 0.015290001 0.14668381 0.13332799
0002b0 a9 b5 6a 3e a7 3b 5d be 63 c3 cc bd 25 47 39 3e
       0.2292086 -0.21604787 -0.099982046 0.18093546
0002c0 98 be 62 3e fa 19 aa bd 75 fb 5f be f7 9d db bd
       0.22143018 -0.08305736 -0.21873267 -0.10723489
0002d0 a6 7e 0a 3e b4 11 df bd d3 a0 2b 3b e8 29 29 be
       0.13524875 -0.108920485 0.0026188388 -0.16519892
0002e0 d4 92 3f bc 67 dc 2d be 4b 31 43 be 69 cb c6 bd
       -0.011692721 -0.16978608 -0.19061773 -0.09706766
0002f0 69 7a 34 be 79 d5 03 be 72 eb a6 3d 66 e2 1c 3e
       -0.17624821 -0.12874402 0.081503764 0.15320739
000300 b9 7c 36 3e 78 cd 61 3b 26 4b 5b 3e cb c7 0b 3e
       0.17821015 0.0034454744 0.21415386 0.13650434
000310 c2 f2 2c 3d f3 7c f5 bc ed 62 1f 3e 5d d2 8d 3c
       0.0422237 -0.029966807 0.15565081 0.017312223
000320 60 08 82 3d c1 a1 df bd ba cb 01 3e 72 1d bb bc
       0.06349254 -0.10919524 0.12675372 -0.022841189
000330 66 80 01 3e 4c 31 2e be 60 39 54 3e 21 b7 ec 3d
       0.12646636 -0.17010993 0.20725012 0.115583666
000340 fd 45 ad bd 1b 8c 19 bd 0d 1e ad bd 7b 8c b0 3d
       -0.08460615 -0.03748713 -0.08452997 0.086205445
000350 d6 4b 99 3d a2 6a e2 3d 63 6f 4b be 65 e2 7f 3c
       0.07485168 0.11055495 -0.1986671 0.0156179415
000360 3a 8a ef 3d 74 dc 47 be 96 8b 3c be 8c aa 88 3d
       0.116962865 -0.1951769 -0.18412623 0.06673154
000370 f1 3a 2e be ee 92 f4 bd 87 ef 60 3e 48 5f 64 3e
       -0.17014672 -0.11942087 0.21966372 0.22301972
000380 02 dc 44 be fa 20 4c be ee 7c 3c 3e ad cb fb 3d
       -0.19224551 -0.19934455 0.18407032 0.122947074
000390 07 39 8d 3d 08 eb 17 be eb 7b 81 bd 4f c2 92 bd
       0.06895643 -0.14835751 -0.063224636 -0.07165968
0003a0 c8 38 58 3e bb c8 59 3e db e5 b2 bd b3 71 17 be
       0.2111541 0.21267979 -0.08735248 -0.14789467
0003b0 74 44 59 3e fb f5 2c 3d ea 13 2d 3e c3 a1 37 bd
       0.21217519 0.042226773 0.16902128 -0.044832002
0003c0 ef da 9c 3d ac c1 e7 3c 9a b8 38 3e a0 65 d8 3d
       0.07658946 0.028290592 0.1803917 0.105662584
0003d0 90 06 5e bd 7d 5f 1e be 1d dc 22 3e 2c 76 7f 3d
       -0.054205477 -0.15466113 0.15904279 0.062368557
0003e0 0c 98 9a 3d 4b 90 05 be 98 23 08 be f1 39 07 3e
       0.07548532 -0.13043325 -0.13294828 0.13205697
0003f0 27 48 8f bc 23 23 d7 ba 19 42 56 be c3 3d 76 bd
       -0.01749046 -0.001641367 -0.20923652 -0.060117494

lstm.bias_ih_l0 f4 [60]
000000 aa 7a c5 3d f8 3a 2e be 12 d2 49 bd 92 7e 30 be
       0.09642537 -0.17014682 -0.049272604 -0.17235783
000010 42 03 08 be 0e 30 8a 3d 31 02 3b be 8f af 48 3e
       -0.13282493 0.06747447 -0.18262555 0.1959822
000020 53 a3 82 3d 48 61 11 be 5d ec fb 3c b1 c4 11 3e
       0.06378808 -0.14197266 0.030752355 0.14235188
000030 7f 4b 8e 3d c7 62 61 be 8d a2 88 bd 5d 4b 10 3e
       0.069479935 -0.22010337 -0.06671629 0.14091249
000040 84 84 5c bd 7e 67 c8 3d b3 0e 8b 3d 4c e6 2a be
       -0.053837314 0.097853646 0.06789913 -0.16689414
000050 a4 4b 67 3d de 3c 05 3e 9b 7c 01 be af 94 b9 3d
       0.05646862 0.130115 -0.1264519 0.09061562
000060 aa ce be bc ac cc 33 be 18 5d 6d 3d 5e b6 18 3c
       -0.023291904 -0.17558545 0.05795011 0.0093208235
000070 80 f2 ab 3d a5 6a 1b be c7 8f 87 bd 7c 91 11 bc
       0.083958626 -0.151774 -0.0661922 -0.008884784
000080 50 cc 17 3e 0d 30 30 be dc 0d 76 3d df 5e 11 3e
       0.14824033 -0.1720583 0.06007181 0.14196347
000090 76 70 3b 3e f7 48 e6 3d b1 96 88 bd 32 d8 2e 3e
       0.18304619 0.11244386 -0.06669367 0.1707466
0000a0 ec 63 d9 3d 27 dd e6 bc 80 52 03 3e 78 d7 a0 3d
       0.10614762 -0.028181626 0.1282444 0.078535974
0000b0 51 4f 12 3d 8c 7d 55 be 16 13 7e bb b7 77 16 3e
       0.035720173 -0.20848674 -0.00387687 0.14694105
0000c0 51 2a 94 bd 78 07 00 be e1 a6 ac bc 3e 9b 55 bd
       -0.07234634 -0.12502849 -0.021075668 -0.052150004
0000d0 e1 51 f3 3d 58 71 c0 bd a2 42 14 be 76 bc 2c be
       0.118808515 -0.093966186 -0.14478543 -0.16868767
0000e0 15 26 5a be 74 55 70 3d 05 a0 4b 3e 62 24 34 3d
       -0.2130359 0.058675244 0.19885261 0.04398001

lstm.bias_hh_l0 f4 [60]
000000 1d c7 61 3c 07 2e 8d bd 9d e7 a8 3c b1 84 12 be
       0.013780382 -0.06893545 0.020618254 -0.1430843
000010 bf bb 1e 3e 7d b4 11 be e8 f2 57 be 3d af f9 bb
       0.15501307 -0.14229007 -0.21088755 -0.007619767
000020 c4 7e 66 be 5f 24 b3 bd 35 79 88 3d 38 97 52 3e
       -0.22509295 -0.087471716 0.066637434 0.20565498
000030 2c 0a 62 3d a1 ca d6 3c 40 cb 15 be e6 ef f0 bd
       0.055185482 0.026219668 -0.14628315 -0.11764507
000040 32 20 66 be 2e b0 3b be bb 01 b0 3d 91 0f 7c 3b
       -0.22473219 -0.18328926 0.0859408 0.0038461427
000050 b3 61 25 3b ad 2e 1b 3e d8 f6 af bc 9e 05 28 3d
       0.0025235235 0.15154524 -0.021480009 0.041020982
000060 4a 14 61 be 49 87 d7 bd c3 3d 90 3d 73 26 41 be
       -0.21980396 -0.105238505 0.0704303 -0.18862323
000070 4a e5 8a bc 28 98 44 bd c4 5b 99 bd da 4f 37 3e
       -0.016955037 -0.04799667 -0.07488206 0.17901555
000080 98 79 51 3e 98 a4 0c 3e b7 a1 02 3e 60 07 1a be
       0.2045654 0.13734663 0.12757002 -0.15041876
000090 db a9 2a 3e 2c 9c 7a bd 95 a2 0c 3e 0f dc 56 bd
       0.16666357 -0.061184093 0.13733895 -0.052455958
0000a0 55 af 3b 3d 26 01 f0 3c be fb 3a 3e ad 58 18 bd
       0.045821507 0.029297423 0.18260095 -0.037193943
0000b0 11 53 4e 3e 6f 14 f4 bc a5 72 17 bd 43 dc cb 3d
       0.20148875 -0.0297949 -0.036974568 0.09954121
0000c0 8c d4 1c 3d e5 89 1f 3e 81 61 eb 3d 8b 42 ef 3c
       0.038288638 0.15579946 0.11493207 0.029206535
0000d0 e9 7f 8d bd 76 f0 39 3e ba d6 38 be ce 21 7a bd
       -0.069091626 0.18158135 -0.18050662 -0.061067395
0000e0 09 22 49 be 04 98 69 3d ae c0 15 be 9c 07 11 3e
       -0.1964189 0.05702974 -0.14624283 0.14163059

lstm.weight_ih_l1 f4 [60, 20]
000000 92 80 01 3e 10 c9 67 bd 0e 0c 95 3d aa 33 e7 3d
       0.12646702 -0.056588233 0.0727769 0.11289151
000010 a2 39 5c 3e e1 1f e5 bd b9 d6 d8 3d 23 ac cb 3d
       0.2150636 -0.11187721 0.1058783 0.09944942
000020 d6 26 9e 3c c1 c3 18 be 00 94 02 be 5e 66 aa 3d
       0.019305628 -0.14918424 -0.1275177 0.08320306
000030 59 0a 9e 3d 52 92 18 3e b8 50 09 be f1 90 5a 3e
       0.077168174 0.14899567 -0.13409698 0.21344353
000040 59 fa bd 3d 89 f5 b4 3d c0 2e 4e be f9 fb 3f be
       0.09276266 0.088358946 -0.20135021 -0.18748464
000050 09 9c cd bd a8 a0 eb 3d a3 ff 17 bd 1c 5d 55 bd
       -0.10039527 0.11505252 -0.03710903 -0.05209075
000060 45 f9 04 3e 13 cf 9f 3c fc 94 62 3d 17 46 62 bd
       0.12985714 0.01950792 0.055317864 -0.055242624
000070 0f bd 96 bd 3d 2e b4 bd f0 a8 1f bc c8 29 23 be
       -0.07360279 -0.08797882 -0.009744868 -0.15933907
000080 1e 33 75 3e e8 60 b9 3d 99 fb be 3d 42 f9 a1 bd
       0.23945281 0.090516865 0.09325332 -0.0790887
000090 b1 44 e0 bd 10 45 82 bc 3e ba 0c be 99 93 92 bd
       -0.10950602 -0.015902072 -0.13742921 -0.07157058
0000a0 cb c1 40 be 34 a4 06 3e ea 6f 2b 3e ea d1 2c 3d
       -0.18823926 0.13148576 0.1674191 0.042192377
0000b0 c7 0d 3a 3e 44 c2 b5 bd 1d 27 5e be 24 8d 4e bd
       0.18169318 -0.08874944 -0.21694608 -0.05042757
0000c0 2f c4 eb bd 40 1e 22 3d 6b c4 5a be db e8 15 3e
       -0.115120284 0.03957963 -0.2136399 0.14639609
0000d0 6c 5d 42 3e 21 58 5a be 78 82 1b bd 1a 83 d8 bc
       0.1898095 -0.21322681 -0.03796622 -0.026429702
0000e0 55 15 1b 3d 5c c8 42 3e 43 16 31 3e c3 b5 2c 3e
       0.03786214 0.19021744 0.17293648 0.16866212
0000f0 d5 4d 17 be 6a 7d 02 3e cf a7 24 3e 3f ec 2f 3e
       -0.14775784 0.12743154 0.16079639 0.17179964
000100 a8 74 10 3e cb a3 8f bd e3 b2 e0 bd ba e0 8d 3d
       0.14107001 -0.07013663 -0.1097162 0.06927629
000110 0a b0 51 3e 31 43 cf bd a0 55 07 3e d9 8b ca bd
       0.2047731 -0.101202376 0.13216257 -0.09889955
000120 c2 ef ed 3d c5 aa 5a 3e cc 37 22 be 48 6b 36 be
       0.11617996 0.21354206 -0.15841597 -0.17814362
000130 54 b6 1d be f4 6e 53 bd c3 26 53 3d 9f 18 be 3c
       -0.15401584 -0.051619485 0.051550638 0.0232051
000140 9f b9 37 3e d9 90 cc bd 7d 74 42 bd 34 06 39 3e
       0.17941903 -0.09988565 -0.047474373 0.18068773
000150 ff cf 8d bd 4b 47 21 be 98 d6 6f 3d cc ed 11 3d
       -0.06924438 -0.15749852 0.058554262 0.03562717
000160 1a 04 59 be 17 31 5e bd 89 8a 32 3e 80 e5 20 be
       -0.21192971 -0.054246034 0.1743566 -0.15712547
000170 db af b1 3d cb 66 04 3d 3d 8c 24 3e af 07 8e bd
       0.0867612 0.032324594 0.16069122 -0.06935059
000180 2f f1 39 bc e8 9b 29 3c 4b f4 34 3d 54 1e 51 3e
       -0.011349007 0.010352112 0.04417829 0.20421726
000190 46 fc 05 3e 59 f2 56 bd e0 b9 54 bd a4 77 e4 bc
       0.13084516 -0.052477214 -0.051935077 -0.02788908
0001a0 73 bf 0e 3e 2f 5c ef bd ff ee 11 3e a9 48 c7 3d
       0.1394022 -0.116875045 0.14251326 0.09730656
0001b0 c6 0f 7b 3d 07 08 13 3e 8a 8a 2e be 18 1a 40 3d
       0.06129434 0.14358531 -0.17045036 0.046899885
0001c0 7e bc 1b be cc 04 1e be 9b dc 8d 3c 61 06 46 be
       -0.15208623 -0.15431517 0.017317107 -0.19338371
0001d0 29 4f b9 bd b6 30 d4 bd 3b 38 e1 bd 7b e0 93 3c
       -0.09048302 -0.103608534 -0.10997053 0.018051377
0001e0 64 96 8f 3b b9 b9 88 bb 97 19 b0 bc e1 26 e5 bc
       0.0043819416 -0.0041725305 -0.021496577 -0.02797264
0001f0 c4 aa 54 be 69 91 5e bd be 9d 3a be 7c d8 31 be
       -0.20768267 -0.054337893 -0.18224236 -0.17367738
000200 ca e0 9b 3d ca 8e cf 3d 48 10 26 be 33 d9 2f 3e
       0.076112345 0.10134657 -0.16217148 0.17172699
000210 7f 18 a8 3d 6f 0c 5e be 7b 3f 91 3b 9c ed 09 be
       0.08207797 -0.2168443 0.0044326163 -0.13469547
000220 1d 7e 9b bb 4e 3b 32 3e 38 ca 42 3d e0 f2 a5 bc
       -0.0047452585 0.17405435 0.047556132 -0.020257413
000230 c8 48 25 3e fa 84 18 bd 91 90 34 be 3e b9 f7 bd
       0.16141045 -0.03723619 -0.17633273 -0.12095879
000240 cb 77 3b 3e cb 70 55 3e 0f 5e 22 be a2 09 14 3e
       0.18307416 0.20843808 -0.15856193 0.144568
000250 52 77 46 be 39 c8 fa bd 26 1e 24 bb 36 5d 23 be
       -0.19381455 -0.12245221 -0.0025042384 -0.15953526
000260 03 36 35 be 59 ec 45 be d3 8d 36 bd 6a 13 31 3e
       -0.17696385 -0.1932844 -0.044568848 0.17292562
000270 0a 9a 39 bd 89 13 4a 3e c9 71 12 3e 2a 28 02 3e
       -0.04531292 0.19734015 0.14301218 0.12710634
000280 a2 73 33 3e 6f a1 40 3d 3b aa 4b 3e 05 90 58 3e
       0.17524579 0.047028955 0.19889157 0.21148689
000290 55 ea 6c bd 01 08 6c 3d 51 cf 07 3e c3 86 57 be
       -0.057840664 0.05762482 0.13262679 -0.21047501
0002a0 07 05 2d bd 48 43 d1 bc 82 a9 ed 3d 9e c4 f8 3d
       -0.042241123 -0.025544778 0.11604597 0.12146877
0002b0 1b 7c 1f 3e 6c 13 5e be 8d cc 1f bc 87 99 25 be
       0.15574686 -0.21687096 -0.009753359 -0.16171847
0002c0 82 2d 20 be 9c 11 55 bd 96 36 00 3e af 6c 4f be
       -0.1564236 -0.052018747 0.12520823 -0.20256303
0002d0 9e fb 44 3e c9 72 0e 3e 6f 93 44 bd 50 51 4d 3d
       0.1923661 0.13910975 -0.047992166 0.050126374
0002e0 99 ec 5f bc 1f f6 0d 3e 41 bc f2 3b dd ac 11 bb
       -0.013667249 0.13863419 0.0074076955 -0.0022228279
0002f0 da f6 04 be e8 cb 06 3e 34 16 11 3e 18 64 4c be
       -0.12984791 0.13163722 0.14168626 -0.19960058
000300 8a 0c c6 3d 58 0e 5a 3e b6 e9 07 be cf 5c 18 3e
       0.096703604 0.21294534 -0.13272747 0.14879154
000310 d3 9b d4 bd e4 53 83 3d 89 db 60 3e 11 99 44 be
       -0.103812836 0.06412485 0.21958746 -0.19199015
000320 08 cf 4f be e4 4b 1f be 5c f9 00 3e e7 eb ab bd
       -0.2029382 -0.15556294 0.12595123 -0.08394604
000330 5f 01 be 3d d5 1d 19 3e a8 23 27 be db a6 aa bd
       0.09277605 0.14952786 -0.16322196 -0.083326064
000340 d3 3b 5a be 14 3b d1 bd 58 28 7d bd 4f 15 23 bc
       -0.21311884 -0.102163464 -0.061806053 -0.009953811
000350 28 d3 56 3e e3 78 97 bd 54 be e9 3d 58 2b 26 3e
       0.20978987 -0.07396104 0.11413255 0.16227472
000360 c8 46 d9 bd 59 30 3e be 0f 27 28 bd 7e b4 3b 3e
       -0.106092036 -0.1857313 -0.041052874 0.18330571
000370 66 7d a3 3d 62 4c 64 be 32 a2 79 3d 44 0d 92 bd
       0.07982902 -0.22294763 0.060945697 -0.071314365
000380 58 8d 67 3e 25 e0 14 3e a7 04 54 bd d0 f3 d9 3d
       0.22612512 0.1453863 -0.05176225 0.10642207
000390 8b c7 d2 bc bc c5 23 be 81 c1 32 be 3a 43 d8 bc
       -0.025729915 -0.15993398 -0.17456628 -0.026399244
0003a0 52 b1 0e bd 34 a5 05 3c d0 18 10 3d da 30 a7 3c
       -0.034837075 0.008157063 0.035179913 0.020409036
0003b0 4c 7d 84 bc 15 d1 02 3d 1c 8d 1b 3e d4 80 4e 3e
       -0.016173027 0.031937677 0.15190548 0.20166332
0003c0 1d e3 65 3d 33 f6 13 be 94 51 4e 3e 48 df b4 ba
       0.056124795 -0.14449386 0.20148307 -0.0013799453
0003d0 7e f6 94 3b b1 e8 17 3e 76 74 07 3e 76 ce e2 3d
       0.0045459857 0.14834858 0.1322802 0.110745355
0003e0 b0 5a f4 bd a8 0e 56 3e 78 6b 99 bc 08 88 07 be
       -0.1193136 0.20904028 -0.018728003 -0.13235486
0003f0 9d f6 a9 3d dd a0 3b bd fa f8 8b bd 4a 10 cc 3d
       0.08298991 -0.045807708 -0.06834598 0.099640444

lstm.weight_hh_l1 f4 [60, 20]
000000 e6 78 52 3e 5a 67 3f bc 31 01 06 3e 21 ff 96 ba
       0.20553932 -0.011682356 0.13086392 -0.0011520126
000010 d7 ac d7 bb 5c dd b0 3d 85 a6 1d 3e 1c 8b de bd
       -0.0065818834 0.08635971 0.15395553 -0.10866377
000020 c6 9f 58 be 49 09 dc bc b4 09 be bd 7d b3 5b 3e
       -0.21154699 -0.026859896 -0.092791945 0.21455188
000030 95 b3 52 be 37 42 31 3d 58 d3 23 bd 2e 84 99 bd
       -0.20576318 0.043276038 -0.039996475 -0.074959144
000040 b9 ad 0e bd e1 35 57 be 73 90 0f 3e 98 89 88 bd
       -0.034833644 -0.21016647 0.14019947 -0.06666869
000050 bb 00 27 bd 29 1a cf 3d b5 fb 84 bd 64 5c 65 3e
       -0.04077218 0.101124115 -0.06493322 0.22398525
000060 c4 de 5d 3b 77 ca 13 be 0e ac f2 3d 40 80 cc bc
       0.0033854702 -0.14432703 0.11849223 -0.024963498
000070 58 bd 9d 3c 90 cf 38 be aa 2b c0 bc f0 6c 17 be
       0.019255325 -0.18047929 -0.02345832 -0.1478765
000080 3e a2 25 be de 68 01 3b b9 87 1f be a3 2f 6a be
       -0.16175172 0.0019746344 -0.15579118 -0.22869734
000090 73 1b 06 3e 73 cc 69 be ba 11 09 3d 99 d1 fa 3d
       0.13096409 -0.22831897 0.03346417 0.12247009
0000a0 d9 f3 49 be 7e d7 27 bd 4c 7a 39 bb d5 36 94 bd
       -0.19721927 -0.040976994 -0.0028301654 -0.07237021
0000b0 c5 59 02 3d 28 d3 0b 3e 76 1b 8c 3d 2c 1b d8 bd
       0.031823892 0.13654768 0.06841175 -0.105520576
0000c0 61 c9 e9 bd 36 4c 1a 3e ba eb 37 be fd 13 39 be
       -0.11415363 0.15068135 -0.17961016 -0.18074031
0000d0 f1 54 29 3e 39 ea 33 be 97 be 99 3d 6e d7 36 be
       0.16536309 -0.17569818 0.07507055 -0.17855617
0000e0 05 b4 2c be 81 ba a7 bd 68 8e da 3b 12 28 0a 3e
       -0.16865547 -0.0818987 0.006669808 0.13491848
0000f0 9a c6 2a 3e 31 2a 0b 3e 24 74 27 3e ac e6 33 3e
       0.16677323 0.13590313 0.16352898 0.17568463
000100 cc 43 4d 3e 1c 28 05 3e 1b a8 9d 3d 2e cb 13 bd
       0.20045394 0.13003582 0.07698079 -0.03608244
000110 97 99 a8 bd b4 79 93 bc 84 03 22 3e e0 3a 27 be
       -0.0823242 -0.018002369 0.15821654 -0.16331053
000120 f9 07 dc bd 09 34 f4 bd af 96 32 3e 9a 9d 59 be
       -0.10743708 -0.119239874 0.17440294 -0.21251526
000130 64 0d 4b bc 7c d9 5a be 3d 94 04 3e 8b 9b 2a 3e
       -0.012393329 -0.21372026 0.12947173 0.16660897
000140 0b 5e d7 bc 25 09 15 3e 23 a2 3a bc b5 cf 07 be
       -0.02628996 0.1455427 -0.0113911955 -0.13262828
000150 67 07 87 bc ef 5d 10 3e 72 df e1 3c 78 a5 d3 3d
       -0.016483022 0.14098333 0.027572367 0.10334295
000160 15 ad 11 3d 53 4e ce 3b f6 80 08 bd f7 c5 7e bd
       0.035565455 0.006295958 -0.03332611 -0.062200513
000170 f9 9d 48 be 01 1a cc bd 8f f6 72 bd e7 e3 b3 bd
       -0.19591512 -0.09965897 -0.059317168 -0.08783703
000180 77 26 10 bd b7 76 0a be 38 bd e6 bc 3f 5c 16 bd
       -0.035192933 -0.13521849 -0.028166398 -0.036709066
000190 28 a7 18 bd 63 c5 e4 bc b3 48 32 be 21 07 a5 3d
       -0.037268788 -0.027926153 -0.17410545 0.08058
0001a0 46 2c 19 3e 7f 92 0d 3e 96 f0 23 bc d8 d5 52 be
       0.14958295 0.13825415 -0.010006091 -0.20589387
0001b0 4e cb ec bd 02 cd 4b bd cc 7a 5a be 54 39 e7 3c
       -0.11562215 -0.049756058 -0.21335906 0.028225578
0001c0 a9 a7 63 be 56 01 fe bd 50 8c 4b 3e 30 9e f0 bd
       -0.22231926 -0.124025986 0.19877744 -0.11748922
0001d0 40 47 fc 3d 66 8d 4a be 51 22 84 3d 97 57 09 3e
       0.12318277 -0.19780502 0.06451858 0.13412319
0001e0 63 b4 27 3d a1 12 32 bc ed 73 ca bd eb 54 4d be
       0.040943515 -0.010868699 -0.09885392 -0.20051925
0001f0 01 30 fa 3d 9d e9 f5 bd 97 df 34 be 36 87 0a be
       0.12216187 -0.12007449 -0.17663418 -0.13528141
000200 ce 0a 0f be 64 da 32 be d5 fd 94 bc 27 4b 3b bd
       -0.13968965 -0.17466122 -0.018187443 -0.045725968
000210 f1 2b 58 be 8d c8 0f be 68 89 2a 3e 21 91 86 3d
       -0.21110512 -0.14041348 0.16653979 0.0657065
000220 94 b4 56 3e df 34 32 3e 73 bb ac 3d ba 4e 49 be
       0.20967323 0.17402981 0.084341906 -0.19658938
000230 21 f7 26 be aa 1a 46 be 06 12 4d 3e ef 5c 42 be
       -0.1630521 -0.19346109 0.20026407 -0.18980764
000240 ba e3 84 3d 0a 0a a6 bb d8 cb 4f 3e 6a cc 3c 3e
       0.06488748 -0.0050671147 0.20292604 0.18437353
000250 5b d8 0b be 62 cb a3 bd 92 dc 47 be d9 97 b2 3d
       -0.13656752 -0.079977766 -0.19517735 0.08720369
000260 08 73 8c bd 21 2c 65 3d aa f7 40 3d d2 20 d2 3d
       -0.06857878 0.055950288 0.04711119 0.10260166
000270 3b e7 42 3e e6 6d 10 3e 9f 2f 56 3d 7b 06 e1 bc
       0.1903352 0.14104423 0.05229151 -0.02746891
000280 4d 94 e8 3d 28 6e c0 3d c2 dd 22 3e 5f f6 1d 3d
       0.11356411 0.09396011 0.15904906 0.038565036
000290 e1 17 c6 bb 65 b6 63 be bb 72 45 3d 3d a0 db 3d
       -0.006045327 -0.22237547 0.04820512 0.107239224
0002a0 f1 59 e3 bd 42 29 42 be 59 fc 25 bd 38 23 ad bd
       -0.11101139 -0.18961051 -0.04052386 -0.08453983
0002b0 e9 1c 18 3e dd e4 24 3e 35 a0 2b be ae 8c 24 bd
       0.14854778 0.1610293 -0.16760333 -0.040173225
0002c0 fd 90 14 3d 45 73 36 3c 6c 02 50 be d4 46 4c 3c
       0.036271084 0.011135881 -0.20313424 0.012468059
0002d0 77 b9 61 be b5 46 43 3d 16 0b e4 bd 74 c5 28 3e
       -0.22043405 0.047674853 -0.11134927 0.16481572
0002e0 9d a1 c1 bd c6 71 e8 ba b1 72 2b 3e ba 12 e5 bd
       -0.094546534 -0.0017734102 0.1674297 -0.111852124
0002f0 9a 48 5b 3d 22 35 24 3e 22 0e d9 bd 39 33 13 be
       0.053536035 0.16035894 -0.10598399 -0.14375009
000300 d4 dd c9 3d 9b 5c fe bb a7 8e bb bd 83 ab 29 be
       0.098567635 -0.0077625043 -0.09158068 -0.16569333
000310 cf 28 2c be 1c 88 15 3d e1 dc a2 3d 75 f7 9c 3d
       -0.16812442 0.036506757 0.079522856 0.07664386
000320 bc 4a 1e 3e c1 9a 90 3d 20 03 61 be 46 fb 3b 3e
       0.15458196 0.07060767 -0.21973848 0.18357572
000330 22 89 74 bc 80 39 23 be a0 51 3e 3d a5 bc df 3d
       -0.014925273 -0.15939903 0.046464562 0.10924653
000340 3f eb 42 be 59 a1 fe 3d 43 ac 12 3e e7 3c 1b be
       -0.19035052 0.124331184 0.14323525 -0.15159951
000350 44 9a 02 3d 7a 0b 9c bd 50 19 6a 3c 1c 34 3b 3c
       0.0318854 -0.076193765 0.0142882615 0.011425998
000360 cb 9b e1 bd 4d 27 ca bc e1 5c ef bd 39 95 ee bd
       -0.11016043 -0.024676943 -0.11687637 -0.11649556
000370 cb d9 ec 3d a3 e2 01 bd 7a 98 0e be f0 81 27 3e
       0.11564978 -0.03171028 -0.13925353 0.16358161
000380 f0 1b f5 bd 45 37 22 bb ec d5 4d 3e 4f 6b 17 be
       -0.11968219 -0.0024752181 0.20101136 -0.14787029
000390 75 c2 66 3e 5c 83 0d bd 54 07 4b 3e ea 1e 56 3e
       0.22535117 -0.034549102 0.19827014 0.2091023
0003a0 45 aa 8b bd 48 40 dc 3d 6c 9a 1f 3e a8 50 fa bd
       -0.06819586 0.10754448 0.15586251 -0.12222415
0003b0 3a 42 d9 3d 7e 24 0d 3d 51 15 3e be 2f 29 40 3e
       0.10608335 0.03445863 -0.18562819 0.1876571
0003c0 be 3e 5e be b3 03 9a bc f2 26 63 3d 63 a4 68 3d
       -0.21703622 -0.018800592 0.055457063 0.056797396
0003d0 d8 f1 b6 bb 75 77 d8 bd a9 89 fc 3d 1d b7 80 bd
       -0.0055830292 -0.105696596 0.12330944 -0.06284926
0003e0 9f 8e 13 3d 65 3b 4a 3e d9 ff 33 be 82 9c 0a bb
       0.036024686 0.1974922 -0.17578067 -0.0021150415
0003f0 37 d1 1d 3e a9 7d 9b bd 68 5c 4f 3d 07 f5 5b 3e
       0.1541184 -0.07592327 0.050625235 0.2148019

lstm.bias_ih_l1 f4 [60]
000000 2c e1 95 3d 3e 06 58 3d db 30 a3 bc bc 04 a7 bd
       0.07318339 0.052740328 -0.019920757 -0.081552
000010 7d a6 48 3e d8 8a 11 be 79 b1 58 be b5 99 20 3d
       0.1959476 -0.14213121 -0.2116145 0.039209086
000020 d2 c8 2b be 4c b5 4f bd 92 c7 23 3c c5 23 22 3d
       -0.16775826 -0.050710008 0.009996312 0.039584894
000030 40 91 9e 3d 53 e0 20 be 8c 52 16 be 3d 98 8b bd
       0.07742548 -0.15710573 -0.14679927 -0.068161465
000040 dc 11 47 3d ef 7f 45 3e 86 8c 4d 3d 99 14 9a 3c
       0.048601016 0.19287084 0.05018284 0.01880865
000050 d9 83 22 3e 74 28 33 3e e4 ee 52 3e b4 41 db 3d
       0.15870608 0.174959 0.20598942 0.10705891
000060 32 61 96 3d 47 d3 61 3e 8c c2 af 3d 35 15 1c 3d
       0.07342757 0.22053252 0.08582029 0.038106162
000070 40 e8 99 bc 4b 55 0b 3e 00 45 cc 3d 41 bb c1 3d
       -0.018787503 0.13606755 0.09974098 0.09459544
000080 90 2e 9d bd 1f e6 c9 3d 15 f4 c0 bb 6c 2c a8 3d
       -0.07674897 0.09858345 -0.005888472 0.08211598
000090 c9 f4 1f 3d 94 08 7f 3c 1f ff f1 bd ba b6 2b 3e
       0.039051805 0.01556601 -0.118162386 0.16768923
0000a0 c6 94 85 bc 02 41 0a 3c ba 1c b4 3c 67 4a f0 3d
       -0.016306292 0.008438351 0.021986354 0.11732941
0000b0 e3 58 85 3c 73 cc 78 bd 15 db a3 3d b0 8a 5d 3e
       0.016277736 -0.060741853 0.08000771 0.21634936
0000c0 ff e6 a4 3d 08 4d 97 bd a7 e0 69 3d eb f4 43 be
       0.080518715 -0.073877394 0.05709901 -0.19136398
0000d0 e2 a0 d8 3c fe 1e f7 3d b0 7d 06 3d 1b fa 6a 3d
       0.026443902 0.12066458 0.03283471 0.057367425
0000e0 a7 81 27 3d cb d2 d7 3d 6e 2c 39 3e 01 93 36 be
       0.04089513 0.105382524 0.18083355 -0.17829515

lstm.bias_hh_l1 f4 [60]
000000 14 6f 2c be 16 ee 11 3e 57 0f 72 bd 84 ab 2e 3d
       -0.16839248 0.14250979 -0.05909666 0.04264404
000010 a4 79 0c 3e 13 67 d2 3c 09 0d 61 be 5e d7 15 3e
       0.13718277 0.025683915 -0.21977629 0.14632937
000020 a8 30 01 be b9 ab 5b bc 1f 53 09 be cf 19 29 be
       -0.12616217 -0.013407641 -0.13410614 -0.16513751
000030 6f 9b 61 be 2e 9b 1b 3e 6a 41 39 be 2c 76 72 3d
       -0.2203195 0.15195915 -0.1809136 0.05919473
000040 69 a0 ae bd 8d f0 09 be d1 44 3e 3e 4d 64 4c be
       -0.085266896 -0.13470669 0.18580939 -0.19960137
000050 5f 11 16 be 6d c7 06 3e 49 8f 7d bd 01 5e 85 3c
       -0.14655064 0.13162012 -0.061904225 0.016280176
000060 9c 53 0b be 3f 13 51 be 8c 64 47 3d 44 11 33 3e
       -0.13606113 -0.20417498 0.048679873 0.17487055
000070 1d 30 74 bd 95 f3 25 be 75 e7 32 bd 06 c1 4c be
       -0.059616197 -0.162062 -0.043677766 -0.19995508
000080 19 16 09 be a2 c5 2c 3e ba c3 32 be 8a c9 3d 3e
       -0.13387336 0.16872266 -0.17457476 0.18533912
000090 de 54 57 be 80 1d 22 3e 99 45 94 bd 79 ee 16 3e
       -0.21028468 0.15831566 -0.07239837 0.14739408
0000a0 fb 4f 15 be 00 f0 22 bd 4f ea c4 3c 1b b3 1c bd
       -0.14581291 -0.039779663 0.024037508 -0.038256746
0000b0 d4 42 cc 3d 3b cd 0d be 3e 3e dc 3d a3 99 39 be
       0.09973684 -0.1384782 0.10754059 -0.18125014
0000c0 47 dc 09 bd 0b 13 52 be e9 51 5b be db 44 b0 3d
       -0.03365734 -0.20515077 -0.21417965 0.08606883
0000d0 12 62 22 3e dd d2 4c be 09 f5 2f be bf bc ec 3d
       0.15857723 -0.20002313 -0.17183317 0.11559438
0000e0 db 1c 03 be d0 78 10 be ca 06 af 3d ad f4 2e 3e
       -0.12803976 -0.14108586 0.08546217 0.17085524

linear.weight f4 [1, 20]
000000 09 ad 50 be 6c 95 f9 3d e9 91 a5 3d 1b 8d 6c 3d
       -0.20378508 0.12186703 0.08084471 0.057751756
000010 16 44 25 3d 81 44 5c 3e ee 49 0e be 21 1f 17 be
       0.040348135 0.21510507 -0.1389539 -0.14757968
000020 69 7b 0a 3d 7a 4f 6b bd bf 3a cd bd 97 58 2b bc
       0.0338091 -0.05744884 -0.100209706 -0.010458133
000030 55 21 02 3e 74 67 26 bd 4e 65 19 3e 56 4c ce 3c
       0.12708028 -0.040626004 0.14980051 0.025182884
000040 68 d6 3d be 4e 4c 3f 3e b6 80 4f bd 98 9f 5c 3e
       -0.1853882 0.18681452 -0.050659858 0.21545255
