scripts/save_model.pth (torch, 18923 bytes, 9 tensors)

lstm.weight_ih_l0 f4 [60, 2]
0	0xbe285452	-0.16438416
1	0x39d5745d	0.00040713223
2	0xbe6c60b7	-0.23083769
3	0xbdfe2507	-0.12409406
4	0xbc35c3f0	-0.011094078
5	0x3e3a5fe8	0.18200648
6	0xbe481dbc	-0.19542593
7	0x3d98bff4	0.07458487
8	0xbe111de1	-0.14171554
9	0x3e1542ff	0.14576338
10	0x3e674d9b	0.22588198
11	0x3d907b07	0.070547156
12	0x3df10ed0	0.117704034
13	0xbe4b88ac	-0.19876355
14	0xbe135628	-0.14388335
15	0x3e2c2581	0.16811182
16	0xbe414061	-0.18872215
17	0x3e35ed97	0.17766415
18	0x3e33c4dc	0.17555565
19	0xbdbb721a	-0.091526225
20	0x3d4d1a5f	0.050073978
21	0x3dd1631c	0.10223982
22	0xbd74e353	-0.059787106
23	0x3e2a4145	0.16626461
24	0x3de745b9	0.112925954
25	0x3e328768	0.17434466
26	0x3dbcb256	0.092137024
27	0x3a600c92	0.0008546795
28	0x3e53a51d	0.20668454
29	0xbd60bdd6	-0.05486854
30	0xbe4f0ec8	-0.20220482
31	0x3dfcce5f	0.1234405
32	0xbdcf0e88	-0.101101935
33	0x3d9efb4b	0.07762774
34	0xbe129429	-0.14314331
35	0xbd62ee7b	-0.055403214
36	0x3d3489f0	0.04407686
37	0xbd2e71cb	-0.04258899
38	0x3dbf9886	0.093552634
39	0xbdfc92a2	-0.123326555
40	0xbdc6f912	-0.09715475
41	0x3da4f3f2	0.080543414
42	0xbdfb9077	-0.12283414
43	0x3e1664a1	0.14686824
44	0x3ce9c382	0.028535608
45	0x3bbd6035	0.005779291
46	0x3df32435	0.1187214
47	0x3e530650	0.20607877
48	0xbe1d0a6b	-0.15336005
49	0x3e3d6470	0.18495345
50	0xbe371089	-0.17877401
51	0x3dc29c59	0.09502477
52	0xbcadb259	-0.021203207
53	0xbbc473eb	-0.005995264
54	0xbdd0c926	-0.10194616
55	0xbdc3a9c0	-0.095538616
56	0x3bdfcf4d	0.006830132
57	0xbdd3e1c5	-0.103457965
58	0x3d955141	0.072908886
59	0x3aac9733	0.001316762
60	0xbe1984b7	-0.14992033
61	0xbe3ec634	-0.18630296
62	0xbd8f9562	-0.070109144
63	0x3dd8a454	0.10578218
64	0xbe1617ed	-0.14657564
65	0xbdd38c2b	-0.10329469
66	0xbe4b955e	-0.19881198
67	0x3dafbf63	0.08581426
68	0x3e26ef01	0.1630211
69	0x3e1344ac	0.14381665
70	0xbc2f40ab	-0.01069657
71	0x3e5cba20	0.21555376
72	0x3d05f81d	0.032707322
73	0x3cdde0f6	0.027084809
74	0x3e02e003	0.12780766
75	0x3e606356	0.21912894
76	0xbdfcd959	-0.12346143
77	0x3dd502c6	0.104009196
78	0xbe0bfbf6	-0.13670334
79	0xbe31fdfb	-0.17382042
80	0x3c56eb6f	0.013117655
81	0x3df68c5f	0.120384924
82	0xbe4b28f0	-0.19839835
83	0x3dc001d0	0.09375346
84	0x3d8615ff	0.06547164
85	0xbe6905db	-0.2275614
86	0xbe1c0b96	-0.15238795
87	0xbd9c2326	-0.076238915
88	0xbd2fa217	-0.04287919
89	0xbe185e0f	-0.1487963
90	0xbe0575f4	-0.13033277
91	0x3e5e8226	0.21729335
92	0xbe0481a4	-0.12940079
93	0xbe224753	-0.1584752
94	0x3e5f7fbd	0.21826072
95	0xbc8e5857	-0.017376108
96	0x3c64210e	0.0139238965
97	0x3e1cb6fc	0.15304178
98	0xbde7b1f3	-0.11313238
99	0xbe2e45e9	-0.17018856
100	0xbd3b1b31	-0.04568023
101	0xbdca6a23	-0.09883525
102	0x3e627f05	0.22118767
103	0x3e5312f9	0.20612706
104	0xbe52a493	-0.20570593
105	0xbe4420a3	-0.19153075
106	0xbe1d2e18	-0.15349615
107	0xbe1fc0b7	-0.15600859
108	0x3df9c3bb	0.12195536
109	0xbdcc235c	-0.09967682
110	0x3e6d84fa	0.23195258
111	0x3e22df92	0.15905598
112	0x3d565254	0.052324608
113	0x3e2d1189	0.1690122
114	0x3e1611b4	0.1465519
115	0x3e10831a	0.14112511
116	0x3bf6168a	0.007510011
117	0xbded31a0	-0.11581731
118	0x3e342e4e	0.17595789
119	0xbe2dd067	-0.1697403

lstm.weight_hh_l0 f4 [60, 20]
0	0xbd2e421f	-0.042543527
1	0xbdd03f1a	-0.10168286
2	0xbdad8174	-0.08471957
3	0x3dc0704a	0.093964174
4	0x3ddef2ee	0.10886179
5	0xbdd9e49f	-0.10639309
6	0xbe30b1b5	-0.1725529
7	0x3d8165a5	0.06318215
8	0x3e6cbffa	0.23120108
9	0xbd7913ba	-0.06080983
10	0x3e00f921	0.12595035
11	0x3e6d9095	0.23199685
12	0xbd66fed2	-0.05639536
13	0x3e29eee8	0.16595042
14	0xbe68496b	-0.22684257
15	0x3db3ef8b	0.087859236
16	0xbdcb33d2	-0.09921993
17	0x3dd04a71	0.101704486
18	0x3df592b3	0.11990871
19	0x3e4463cc	0.19178694
20	0x3e10c3cb	0.14137189
21	0xbc8b962c	-0.017039381
22	0xbd9deabd	-0.077107884
23	0xbe40259b	-0.18764345
24	0xbe3a15be	-0.18172356
25	0xbdf8102c	-0.121124595
26	0xbd862c00	-0.06551361
27	0xbb969a6c	-0.0045960452
28	0x3e1b3456	0.15156683
29	0x3de5dbba	0.1122355
30	0x3d820d91	0.06350244
31	0xbe0fe9aa	-0.1405398
32	0xbe300850	-0.17190671
33	0xbda3be8e	-0.0799533
34	0xbdf52b8a	-0.11971195
35	0x3df0903a	0.11746259
36	0x3dff2de0	0.12459922
37	0x3cb5eb89	0.022207038
38	0x3ddeb9df	0.10875296
39	0x3e15ef8a	0.14642158
40	0xbd00ce9a	-0.03144703
41	0xbd171bd7	-0.036891785
42	0x3dd549e2	0.10414483
43	0xbdefd1c2	-0.1170993
44	0x3dd35f4a	0.10320909
45	0x3e0d1a0e	0.1377947
46	0x3e14f34e	0.14545938
47	0x3e0c27b0	0.13687015
48	0xbdd9b2f6	-0.10629837
49	0x3de6b634	0.11265221
50	0x3c9dc8e9	0.01926084
51	0xbd956736	-0.072950765
52	0xbe6d5f86	-0.2318097
53	0x3e0a7d65	0.13524397
54	0x3da0e6d2	0.078565255
55	0xbe487984	-0.19577605
56	0xbe002614	-0.12514526
57	0xbe662c49	-0.22477831
58	0x3c71bb8e	0.014754189
59	0x3bb80260	0.0056155175
60	0x3cd11f95	0.025527755
61	0xbe0e6aaa	-0.13907877
62	0x3b5ea736	0.0033974177
63	0x3d05a335	0.03262635
64	0x3d917803	0.071029685
65	0x3c2314cc	0.009953689
66	0x3df36ea4	0.118863374
67	0xbdac60e1	-0.08416916
68	0x3d1bd125	0.038041253
69	0x3e3d1b90	0.18467546
70	0x3dc77beb	0.09740432
71	0xbdad88a4	-0.08473328
72	0x3e2a3668	0.16622317
73	0xbe3f8317	-0.1870235
74	0xbe2c6b1c	-0.16837734
75	0xbccfcba9	-0.025365667
76	0x3d9dbc6b	0.077019535
77	0xbdf4a2b4	-0.11945096
78	0xbd33b2eb	-0.0438718
79	0xbdff6ce0	-0.12471938
80	0xbcc995d5	-0.024607578
81	0x3e2f8b62	0.17143014
82	0xbb73a21e	-0.0037175487
83	0xbd82bbf3	-0.06383505
84	0x3dd7256f	0.10505187
85	0xbe5f0343	-0.21778588
86	0x3dabc949	0.083880015
87	0xbc9adea0	-0.018904984
88	0x3e551e8f	0.20812438
89	0xbe417b5d	-0.18894716
90	0xbe3a64b5	-0.18202479
91	0xbe4e6059	-0.20153941
92	0x3d852914	0.06501976
93	0x3e010027	0.12597714
94	0x3e02bded	0.12767763
95	0xbe503482	-0.2033253
96	0xbccb44c6	-0.024813067
97	0xbd59462e	-0.053045444
98	0xbd623049	-0.05522183
99	0x3cd358a6	0.025799107
100	0xbd29a9a1	-0.041421536
101	0x3df0cf34	0.11758271
102	0x3e66ffab	0.22558467
103	0x3e0b9d79	0.1363429
104	0x3dcb1910	0.0991689
105	0xbe16ee52	-0.1473935
106	0xbe312e1b	-0.17302744
107	0x3e28c048	0.164796
108	0xbdbac9bb	-0.09120508
109	0x3cd7c128	0.026337221
110	0x3d75649a	0.059910394
111	0x3e0264a1	0.127337
112	0x3ca8a6cd	0.02058735
113	0x3e54c9c8	0.20780098
114	0x3e12cd3c	0.14336103
115	0x3d8ab622	0.0677302
116	0xbd642830	-0.05570239
117	0xbd6635e2	-0.05620373
118	0x3e479fa4	0.19494492
119	0x3e6c4d82	0.23076442
120	0x3e556e85	0.20842941
121	0xbd98f3cf	-0.07468378
122	0x3e400348	0.18751252
123	0xbdb61094	-0.08889881
124	0x3d8b3dcc	0.06798896
125	0x3e0e5aaf	0.1390178
126	0x3e4eda10	0.20200372
127	0xbe227e01	-0.15868379
128	0xbad9d9e9	-0.0016620728
129	0xbd13da91	-0.036097113
130	0xbd95cb1d	-0.073141314
131	0x3d9dc09d	0.07702754
132	0x3cf7d7a6	0.030254196
133	0x3cd4735c	0.025933914
134	0xbdbd8224	-0.09253338
135	0x3e1e4678	0.15456569
136	0x3e17eed6	0.14837202
137	0x3deaa2f7	0.11456864
138	0x3d919ce9	0.07110006
139	0xbda71cb4	-0.081597716
140	0xbe0c534c	-0.1370365
141	0xbe09e06a	-0.13464513
142	0xbdfc2383	-0.12311461
143	0xbd0ef0c8	-0.034897596
144	0x3d57d44f	0.052692708
145	0xbd390403	-0.04516984
146	0x3de7515c	0.11294815
147	0x3df389f4	0.11891547
148	0xbc2d6aa8	-0.010584511
149	0xbe48fcad	-0.19627638
150	0xbdee2846	-0.11628775
151	0xbd500e00	-0.0507946
152	0xbe76d28a	-0.24103752
153	0xbdc78a6e	-0.097432
154	0x3dc01d2d	0.09380565
155	0xbd6b11d2	-0.05739004
156	0xbe3e3404	-0.1857453
157	0xbe5880d8	-0.211429
158	0xbd67a8e4	-0.05655755
159	0xbddd7236	-0.108128
160	0x3d16f6b7	0.03685638
161	0x3d26c29c	0.040712938
162	0xbdbfdeb2	-0.09368648
163	0x3de6b5d6	0.11265151
164	0x3b0bd052	0.0021333885
165	0x3e135f0c	0.14391726
166	0xbe29c354	-0.16578418
167	0xbe36ce3c	-0.1785211
168	0x3e14e0cd	0.1453888
169	0x3d8add68	0.06780511
170	0x3dc92387	0.098212294
171	0xbd583812	-0.052787848
172	0x3cabacc8	0.020956412
173	0xbd9feb0a	-0.07808502
174	0xbc8fca6c	-0.017552577
175	0xbe6b9c9f	-0.23008965
176	0x3e395167	0.18097459
177	0xbe044d93	-0.12920217
178	0xbc222ac3	-0.0098978905
179	0x3cdfe3b3	0.027330255
180	0xbda6bb6f	-0.08141219
181	0xbe580a74	-0.21097738
182	0xbe486efc	-0.19573587
183	0xbe265f08	-0.16247189
184	0xbd5ab2de	-0.053393237
185	0x3de08b52	0.10964073
186	0x3d71e632	0.059057422
187	0x3e0633f8	0.13105762
188	0x3e4c9951	0.1998036
189	0x3e55ab7e	0.208662
190	0x3e40effa	0.18841544
191	0xbdfb3f14	-0.122678906
192	0xbcb2c950	-0.021824509
193	0x3e06460f	0.13112663
194	0x3df9d6b7	0.12199157
195	0x3b9b90cd	0.004747486
196	0xbe45ae99	-0.19304885
197	0x3e178af3	0.14799099
198	0x3ca346d5	0.019931236
199	0x3e478e78	0.19487941
200	0x3e3a17d9	0.1817316
201	0xbcba2868	-0.022724345
202	0x3e5096c8	0.20370018
203	0xbd41a44b	-0.047275823
204	0x3e2df074	0.16986257
205	0xbdea90d9	-0.11453409
206	0x3dcc0a7a	0.09962936
207	0x3e0290a4	0.12750489
208	0xbdab62a5	-0.08368424
209	0xbd31558c	-0.043294474
210	0xbd897ce6	-0.067132756
211	0xbd9d0533	-0.07667007
212	0xbda31ad3	-0.07964101
213	0x3dbefc58	0.093254745
214	0xbd3d05f7	-0.046148267
215	0xbdd15aac	-0.102223724
216	0xbe10f745	-0.14156826
217	0x3e4dc4a2	0.2009454
218	0x3e1d3ef1	0.15356041
219	0xbe018ecf	-0.12652133
220	0xbbc20794	-0.0059213135
221	0x3e65c04c	0.22436637
222	0x3d05b74e	0.032645516
223	0x3e2f7e91	0.17138125
224	0x3c97b74e	0.018520024
225	0xbe51a05d	-0.2047133
226	0x3dd717a3	0.10502555
227	0x3bd4e284	0.0064967293
228	0xbd8e5552	-0.06949867
229	0xbe1b4e82	-0.15166667
230	0xbe5d4bc6	-0.21610937
231	0x3d9e1638	0.07719082
232	0xbcc19f35	-0.023635486
233	0xbca82811	-0.020526918
234	0xbe1ceaa5	-0.15323885
235	0x3e235b9a	0.15952912
236	0xbdc029cc	-0.09382972
237	0x3de28eaf	0.11062371
238	0xbe2faf75	-0.17156775
239	0xbd051a4f	-0.032495793
240	0xbd7d7da0	-0.061887383
241	0x3e604d22	0.21904424
242	0xbc350176	-0.011047712
243	0xbe60fd17	-0.21971546
244	0xbd760ce9	-0.060070906
245	0x3d29e233	0.041475486
246	0xbdf22115	-0.11822716
247	0xbd909f7d	-0.0706167
248	0x3e2e69c6	0.17032537
249	0x3e082f6f	0.13299344
250	0xbe34977b	-0.1763591
251	0x3da35cb2	0.079766646
252	0xbc935108	-0.017982975
253	0xbd514325	-0.051089425
254	0xbe64dc49	-0.22349657
255	0x3c4412b0	0.011967346

lstm.bias_ih_l0 f4 [60]
0	0xbe371d18	-0.17882192
1	0x3d1a2bb2	0.037639327
2	0xbe0b2b55	-0.13590749
3	0x3dc2620d	0.09491358
4	0xbd55744e	-0.05211287
5	0x3de48743	0.111586116
6	0x3ce14a3d	0.02750122
7	0x3d056814	0.03256996
8	0x3d8aa8fb	0.06770512
9	0x3e2abbf8	0.16673267
10	0x3de43867	0.111435704
11	0xbd10cace	-0.03534966
12	0x3dfdaa17	0.12385958
13	0xbdcaacb6	-0.09896223
14	0x3dd43a04	0.10362628
15	0xbd909ce5	-0.07061175
16	0xbe3ff506	-0.18745813
17	0x3df3fc12	0.11913313
18	0xbcf7b2dd	-0.030236656
19	0x3e3b6574	0.1830042
20	0x3e1983c4	0.14991671
21	0x3b8be4d7	0.004269223
22	0xbe02d945	-0.12778194
23	0xbe37622c	-0.17908543
24	0x3d917037	0.071014814
25	0x3e6ebaad	0.23313399
26	0xbd079ccf	-0.03310853
27	0x3db46902	0.08809091
28	0xbe4c39b8	-0.19943893
29	0x3deebce4	0.11657122
30	0xbe4bec77	-0.19914423
31	0x3e4c2845	0.19937237
32	0x3d3eff18	0.046629995
33	0xbde0a843	-0.109695934
34	0x3e06c35f	0.13160466
35	0x3d16913b	0.036759596
36	0xbe408560	-0.18800879
37	0xbe4c3871	-0.19943406
38	0xbe12518d	-0.14288922
39	0x3dcff88e	0.1015483
40	0xbe1b6a89	-0.15177359
41	0xbdc3a21f	-0.095524065
42	0xbe3a96fa	-0.18221655
43	0xbdc8ffac	-0.098143905
44	0x3e2eb526	0.1706129
45	0xbdacb7f3	-0.08433523
46	0xbdc859c6	-0.09782748
47	0xbd0da7a2	-0.034583695
48	0x3cc50d75	0.024054268
49	0xbd040564	-0.032231703
50	0x3deb8258	0.114994705
51	0x3d669130	0.056290805
52	0x3da7203f	0.08160447
53	0x3e373e6b	0.17894904
54	0xbe4ba6eb	-0.19887893
55	0xbdb563c6	-0.08856921
56	0x3de7232e	0.11286007
57	0xbe609e59	-0.21935405
58	0x3e1f8456	0.15577826
59	0x3cc7f8da	0.024410654

lstm.bias_hh_l0 f4 [60]
0	0xbdc5ac1a	-0.096519664
1	0x3d8316d5	0.06400839
2	0x3d5bb4a6	0.053639077
3	0x3dc3c902	0.095598236
4	0x3d6e5cdb	0.058194023
5	0x3dec05b5	0.11524526
6	0xbd2e073b	-0.042487364
7	0x3e4b4e1d	0.19854017
8	0x3d72573f	0.059165236
9	0x3c8fcef0	0.01755473
10	0xbe2dc414	-0.16969329
11	0x3dafa165	0.085757054
12	0xbe33878e	-0.17532179
13	0x3d82deee	0.06390177
14	0x3e3ef55a	0.18648282
15	0xbdb59eac	-0.08868155
16	0x3dfe5162	0.12417866
17	0x3d3eb663	0.046560656
18	0x3b9c0acb	0.004762029
19	0x3d399085	0.04530384
20	0xbe421f55	-0.18957265
21	0x3e527c21	0.20555164
22	0xbd95319d	-0.072848536
23	0x3e454a95	0.19266732
24	0xbe453c3c	-0.19261259
25	0x3e1b4679	0.15163602
26	0x3d7b2e6f	0.06132358
27	0x3e676e99	0.22600783
28	0xbe2e2870	-0.17007613
29	0x3de43276	0.11142437
30	0x3ddc4df7	0.10757058
31	0xbe5457cf	-0.20736621
32	0xbdba5051	-0.090973504
33	0xbde930ff	-0.113862984
34	0x3e1a0ac8	0.15043175
35	0x3e12c279	0.14331998
36	0xbcd3cd08	-0.025854602
37	0x3e45c849	0.19314684
38	0xbe079097	-0.1323875
39	0x3bc97dab	0.006149014
40	0xbde440ca	-0.1114517
41	0xbd202d9b	-0.039105993
42	0xbdc22799	-0.09480209
43	0x3db3dcc7	0.08782344
44	0xbdd550a3	-0.10415771
45	0xbd8ac840	-0.06776476
46	0x3e55feae	0.20897934
47	0x3cf67464	0.030084796
48	0x3e4f9c25	0.20274408
49	0xbe432a77	-0.19059168
50	0x3e4409cc	0.19144362
51	0xbc81bc0d	-0.01583674
52	0x3dc06aae	0.093953475
53	0xbd3b4daf	-0.04572838
54	0xbdf8e280	-0.121525764
55	0x3c50827c	0.012726422
56	0x3c3bec1f	0.01146987
57	0x3de649dd	0.11244557
58	0xbe0b751a	-0.1361889
59	0xbd8f9fda	-0.07012911

lstm.weight_ih_l1 f4 [60, 20]
0	0xbe16f8f2	-0.14743403
1	0xbdc6bab1	-0.09703577
2	0x3e12c0c8	0.14331353
3	0xbe4da978	-0.20084178
4	0xbe22cab2	-0.15897635
5	0xbe5c6d82	-0.21526149
6	0xbcb9761b	-0.022639325
7	0xbde76c60	-0.11299968
8	0xbd4490bc	-0.047989592
9	0x3e306597	0.17226253
10	0x3e4b6a1f	0.198647
11	0x3d07b827	0.033134606
12	0xbd0f3752	-0.034964867
13	0xbe2c9b32	-0.16856077
14	0xbd998f92	-0.07498087
15	0x3e3ff53f	0.18745898
16	0x3d2979f8	0.041376084
17	0xbd035d47	-0.032071378
18	0x3c869cf8	0.01643227
19	0x3dbd96a7	0.0925725
20	0xbd39944c	-0.045307443
21	0x3e5c4810	0.21511865
22	0x3da4898a	0.08034046
23	0xbde07ea6	-0.10961656
24	0x3c959f41	0.018264415
25	0xbe119162	-0.14215615
26	0x3d4e8854	0.05042298
27	0x3d203c11	0.039119784
28	0xbe1483ab	-0.14503352
29	0x3d24e931	0.04026145
30	0xbe225a25	-0.158547
31	0x3e42d5fc	0.19026941
32	0x3e17bdb2	0.14818457
33	0x3d2fcf31	0.042922202
34	0xbd18f7ba	-0.037345625
35	0x3e753677	0.23946558
36	0xbbf38939	-0.0074321297
37	0xbe096488	-0.13417256
38	0x3e39544d	0.18098564
39	0x3d9a1122	0.07522799
40	0x3e558879	0.20852841
41	0x3c137bbf	0.009001671
42	0x3d9be44a	0.07611902
43	0x3d0d19c2	0.034448393
44	0xbe2600ff	-0.16211317
45	0xbd9e5ce6	-0.07732563
46	0xbe21c0a6	-0.15796146
47	0x3cf761b2	0.030197952
48	0x3e36bd03	0.1784554
49	0xbdf5ad21	-0.11995912
50	0xbd29797b	-0.04137562
51	0x3e3e80ab	0.1860377
52	0xbd37356e	-0.04472869
53	0x3c865485	0.016397724
54	0x3e49dc9f	0.19713067
55	0x3e5e92b7	0.21735655
56	0xbd593937	-0.05303308
57	0xbe24bb99	-0.16087188
58	0xbced0312	-0.028932128
59	0xbdfad455	-0.1224753
60	0x3e66e5f6	0.2254866
61	0x3e027cb9	0.1274289
62	0x3d34baa5	0.04412331
63	0xbe1fa593	-0.15590505
64	0xbdc25cdf	-0.0949037
65	0xbd3c27c1	-0.04593635
66	0x3b8bffb7	0.004272427
67	0xbe5e4bc5	-0.21708591
68	0xbb9b4ed9	-0.004739624
69	0xbda48d8b	-0.0803481
70	0x3d278399	0.040896986
71	0xbd9430f4	-0.072358996
72	0x3d6c162f	0.057638343
73	0xbe5a2356	-0.21302542
74	0x3c95c57f	0.01828265
75	0xbe58d644	-0.21175486
76	0x3e1aace4	0.15105015
77	0xbd9928e4	-0.074785024
78	0x3d8fc802	0.0702057
79	0x3e0ab59d	0.13545842
80	0xbe19260f	-0.14955924
81	0xbe63898d	-0.2222044
82	0xbda0386f	-0.07823264
83	0x3d209e00	0.03921318
84	0xbe525524	-0.20540291
85	0x3e09a72a	0.13442674
86	0x3d882ca3	0.06649139
87	0x3e12b25b	0.1432585
88	0xbd4aebfe	-0.049541466
89	0x3d1e99cc	0.03872089
90	0xbd9a6cec	-0.075403064
91	0xbe587fac	-0.21142453
92	0xbdfe3f1b	-0.1241438
93	0xbd683588	-0.056691676
94	0xbe4a3333	-0.19746093
95	0x3e385952	0.18002823
96	0xbdc9fb39	-0.0986237
97	0x3d48d926	0.049035214
98	0x3db13872	0.08653344
99	0x3e3d283a	0.18472376
100	0x3e0bc848	0.1365062
101	0x3daf54a9	0.085610695
102	0x3e055d91	0.13023974
103	0xbe10ffe1	-0.1416011
104	0xbd343941	-0.043999914
105	0xbc5d654a	-0.013512919
106	0xbdc24d61	-0.09487415
107	0xbd573e9d	-0.052549947
108	0x3d0f38b5	0.03496619
109	0x3d42c9aa	0.047555603
110	0xbe2221d6	-0.1583322
111	0x3e40b9a5	0.18820818
112	0xbe49e0b9	-0.19714631
113	0xbc66348e	-0.014050616
114	0x3dd7f7e4	0.10545328
115	0x3e05ef48	0.1307956
116	0xbdbfda50	-0.09367812
117	0xbc7a8ce3	-0.015292379
118	0x3e4f8e58	0.20269144
119	0x3dfdd02f	0.123932235
120	0xbd9fdf09	-0.078062125
121	0xbd948e8f	-0.072537534
122	0xbc16f9cd	-0.009214831
123	0xba6ab3ab	-0.0008953164
124	0xbda82b29	-0.08211357
125	0x3cbe6237	0.023240192
126	0xbd57f8d4	-0.052727535
127	0xbd36e8fa	-0.044655778
128	0xbe3ff95b	-0.18747465
129	0xbdf7048d	-0.12061415
130	0xbe6a25b7	-0.2286595
131	0x3d8015ab	0.06254133
132	0xbe2bfebf	-0.16796397
133	0xbd8593ba	-0.06522317
134	0x3e2f379e	0.1711106
135	0x3e562cdf	0.20915554
136	0x3e01644e	0.1263592
137	0xbd60291a	-0.054726698
138	0x3d4dd76b	0.050254267
139	0xbdd8c04a	-0.10583551
140	0xbe320621	-0.1738515
141	0x3e5ebac1	0.21750928
142	0xbe59e4b1	-0.21278645
143	0x3de8360d	0.11338434
144	0xbdd7ad3b	-0.10531088
145	0xbe5dc021	-0.21655323
146	0xbe1e6f5a	-0.15472165
147	0xbe37f351	-0.17963912
148	0x3da531ea	0.08066161
149	0xbe45130e	-0.1924555
150	0x3e324ec5	0.1741286
151	0x3dfa5c77	0.122246675
152	0xbe214583	-0.15749173
153	0x3d9c2e51	0.07626022
154	0xbd2d8a37	-0.04236814
155	0xbcd86473	-0.026415085
156	0x3e5e8eff	0.21734236
157	0xbe12fe2a	-0.14354768
158	0x3db4885a	0.088150695
159	0x3d00f8f3	0.031487416
160	0xbd4c8c8d	-0.049938727
161	0xbdb78e0e	-0.08962642
162	0x3c8a22f5	0.016862372
163	0x3cb41639	0.021983253
164	0x3de6178d	0.11234961
165	0xbd8c64dd	-0.06855176
166	0x3d24455b	0.040105205
167	0xbdd1d16e	-0.10245024
168	0xbd461f0c	-0.048369452
169	0x3df40655	0.1191527
170	0x3e231ad3	0.15928201
171	0xbca82026	-0.020523142
172	0x3db601d0	0.088870645
173	0x3dcd4b29	0.10024101
174	0x3e06eedb	0.13177054
175	0xbdb82397	-0.08991163
176	0xbc03fcce	-0.008055879
177	0xbe00b357	-0.12568413
178	0x3e73b683	0.23800091
179	0x3e5b63cb	0.21424787
180	0xbd21bee5	-0.03948869
181	0x3d2b2274	0.041780904
182	0x3d0de80c	0.034645125
183	0x3e55c1bd	0.20874687
184	0xbcf52584	-0.029925115
185	0x3db6e2f7	0.08930009
186	0xbc3d2e24	-0.011546645
187	0xbd3aa363	-0.045565974
188	0x3e15d330	0.14631343
189	0xbe1d9056	-0.15387091
190	0x3e4573dd	0.1928248
191	0x3e382c33	0.1798561
192	0xbc934f06	-0.017982017
193	0x3e471bdf	0.19444226
194	0x3e204540	0.15651417
195	0xbce317b1	-0.027721258
196	0xbe0108c8	-0.12601006
197	0xbe4b19b2	-0.1983402
198	0x3db1f8a3	0.08690002
199	0xbbf9f57a	-0.00762814
200	0x3c8df452	0.017328415
201	0xbe3cfcf4	-0.18455869
202	0x3e555f72	0.20837191
203	0xbd68ce8d	-0.056837607
204	0x3d462776	0.048377477
205	0xbdcd7187	-0.10031419
206	0xbe3607be	-0.17776391
207	0x3e3bc9bb	0.18338673
208	0x3ac13dff	0.0014743208
209	0xbd99d03d	-0.075104214
210	0xbe724198	-0.23657835
211	0x3e23e03b	0.16003506
212	0xbe31de73	-0.17370014
213	0xbe08d36d	-0.13361903
214	0xbdfc4e85	-0.12319664
215	0xbdaab6c5	-0.08335642
216	0x3e100db1	0.14067723
217	0x3c99bca9	0.018766718
218	0xbd94e25a	-0.07269736
219	0x3d52a61e	0.051427953
220	0x3dda70ed	0.1066607
221	0x3dac31b0	0.08407915
222	0x3e0cb8d7	0.13742386
223	0x3dab360e	0.083599195
224	0x3db78c95	0.08962361
225	0xbe0fee56	-0.14055762
226	0x3e20f95a	0.1572012
227	0xbc9b63b8	-0.018968448
228	0xbdee705e	-0.11642526
229	0xbdf0ab96	-0.117514774
230	0xbda6a5e3	-0.08137109
231	0xbd0b40b7	-0.033997264
232	0x3ddede51	0.10882247
233	0xbe4e4d5a	-0.20146695
234	0xbd8d024d	-0.068852045
235	0x3e428777	0.18996988
236	0xbe22a62d	-0.15883704
237	0x3db7b11d	0.089693286
238	0xbd3eef2d	-0.046614815
239	0x3d04f14e	0.03245669
240	0xbe0ff18c	-0.14056987
241	0xbc204572	-0.009782182
242	0x3e2f405e	0.17114398
243	0x3e35c019	0.1774906
244	0xbe4fee1d	-0.20305677
245	0x3cb84822	0.022495333
246	0x3ddb261c	0.10700628
247	0x3e5d72aa	0.21625772
248	0x3d8d0e59	0.06887502
249	0xbe246a3f	-0.16056155
250	0xbe07b530	-0.13252711
251	0x3d9dbd97	0.07702177
252	0xbe07ac54	-0.13249332
253	0xbe5d428c	-0.21607417
254	0xbdf5fa27	-0.120106034
255	0xbda5f4b6	-0.081033155

lstm.weight_hh_l1 f4 [60, 20]
0	0xbdb3feab	-0.087888084
1	0xbe62fbc0	-0.22166348
2	0x3dce24c3	0.100656055
3	0x3dc40848	0.09571892
4	0xbe3ecba4	-0.1863237
5	0x3e1e451c	0.1545605
6	0x3d2062e7	0.03915682
7	0xbd728ca7	-0.059216168
8	0xbe5b2fba	-0.21404925
9	0xbe3bd548	-0.18343079
10	0xbdde529c	-0.108556
11	0xbdb9d9b0	-0.09074724
12	0x3db53f98	0.0885002
13	0xbe387f48	-0.18017304
14	0x3d1de813	0.0385514
15	0xbd4693e8	-0.0484809
16	0xbdc944cb	-0.09827574
17	0xbe0f85e3	-0.14015917
18	0xbe0dd76f	-0.13851713
19	0x3db534af	0.08847939
20	0x3e0b8ba0	0.13627481
21	0xbdf1d4ea	-0.11808188
22	0x3c302020	0.010749847
23	0xbdd5ae07	-0.10433584
24	0xbe139515	-0.14412339
25	0xbe617cee	-0.22020313
26	0xbe56b3c7	-0.20967017
27	0xbdfa21d3	-0.12213483
28	0xbcff759e	-0.031184014
29	0xbe396943	-0.1810656
30	0xbe1b9bce	-0.15196154
31	0xbe2c9def	-0.16857122
32	0x3e3605ba	0.17775622
33	0x3e74b22e	0.23896095
34	0xbe3d29c3	-0.18472962
35	0xbdc6eba8	-0.097129166
36	0xbc0173c1	-0.007901133
37	0xbe251fda	-0.16125432
38	0xbd539506	-0.05165579
39	0x3d108e2a	0.03529183
40	0x3c0ab265	0.008465384
41	0xbe35f21a	-0.17768136
42	0xbd0ca6b8	-0.034338683
43	0xbdf52e8e	-0.1197177
44	0xbc203e03	-0.00978041
45	0xbe29d1ac	-0.1658389
46	0x3bcaf5f8	0.0061938725
47	0xbdfbc039	-0.12292523
48	0x3df6663e	0.1203122
49	0xbe0fbda6	-0.14037189
50	0x3dbae6a5	0.09126023
51	0xbde6ef0a	-0.11276062
52	0x3e4dc0c2	0.20093063
53	0xbdf8179d	-0.12113879
54	0xbe3dc549	-0.1853229
55	0xbe61142b	-0.2198035
56	0xbe1b7e76	-0.1518496
57	0x3dc32659	0.095287986
58	0xbdb5b6bb	-0.08872744
59	0xbdc6f137	-0.09713977
60	0x3e5a65f0	0.21327949
61	0xbe2bd0ba	-0.16778842
62	0xbc4d4c31	-0.0125303725
63	0xbdd8a0a4	-0.10577515
64	0x3d8e685d	0.069534995
65	0x3e3a7ab6	0.18210873
66	0xbd1bce48	-0.038038522
67	0xbcfc4cf4	-0.030798413
68	0xbe09bcb5	-0.13450892
69	0x3e2d009e	0.16894767
70	0x3aa3ba9e	0.0012491529
71	0xbd6ff302	-0.05858136
72	0xbdacbb37	-0.08434146
73	0x3e2fd7de	0.1717219
74	0x3e0c3598	0.1369232
75	0x3cbf5e53	0.023360407
76	0xbe1a4c18	-0.1506809
77	0xbe5e801a	-0.21728554
78	0x3d388ef6	0.045058213
79	0x3e6d7597	0.23189388
80	0x3d9a2914	0.07527366
81	0x3d2a4ece	0.04157906
82	0x3d4ab3b3	0.04948778
83	0xbe13c492	-0.14430454
84	0xbe269f6a	-0.16271749
85	0xbc045925	-0.008077894
86	0xbe4103c2	-0.1884909
87	0xbda4a6cc	-0.080396265
88	0x3db2240d	0.086982824
89	0x3e3b3fdf	0.18286084
90	0xbdfd50f9	-0.1236896
91	0x3de1f9e1	0.11033989
92	0xbe1426ef	-0.14467977
93	0xbe5086ce	-0.20363924
94	0xbe44595d	-0.19174714
95	0xbe1a8a15	-0.15091737
96	0xbe2dc35c	-0.16969055
97	0xbd649e31	-0.055814926
98	0x3d28117c	0.0410323
99	0x3cc9096b	0.024540624
100	0x3de610db	0.11233684
101	0x3e425bfe	0.18980405
102	0x3e379808	0.17929089
103	0x3d98dec9	0.07464368
104	0x3da67ff6	0.08129875
105	0x3e3aabe9	0.18229641
106	0x3e023b6c	0.1271798
107	0xbe594cb5	-0.21220668
108	0x3e435d43	0.19078545
109	0xbd1b7132	-0.03794975
110	0xbe5bb54c	-0.21455878
111	0x3dfe5e0b	0.12420281
112	0x3e37c32e	0.17945549
113	0xbdded4c8	-0.108804286
114	0x3d1ee6ef	0.038794454
115	0x3e1c99bc	0.1529302
116	0x3d9ab554	0.07554117
117	0xbd1022c9	-0.035189424
118	0xbc61cf7b	-0.013782377
119	0xbe3c0d37	-0.18364416
120	0x3e473654	0.19454318
121	0xbe3b3ff1	-0.1828611
122	0xbd2af955	-0.041741688
123	0x3e3cb2b2	0.18427542
124	0x3e4ca8b6	0.19986233
125	0x3e62180f	0.2207949
126	0x3e4be068	0.19909823
127	0xbc35e8f1	-0.011102901
128	0xbe438db8	-0.1909703
129	0x3d3a124a	0.045427598
130	0xbe1831e8	-0.14862788
131	0xbdfd3429	-0.123634644
132	0xbd5d559a	-0.054036714
133	0x3caf76e4	0.021418996
134	0x3e28d59a	0.16487733
135	0x3cfa5ae3	0.030560916
136	0x3e4b4e3b	0.19854061
137	0x3d1a6ce4	0.037701502
138	0xbdac3f7e	-0.08410548
139	0xbdaf8940	-0.085711
140	0xbd029fd4	-0.031890705
141	0xbe25c6b7	-0.16189085
142	0x3e17013c	0.14746565
143	0xbcf7d168	-0.03025122
144	0xbdc583d5	-0.096442856
145	0xbe2b64ee	-0.1673772
146	0xbd159244	-0.036516443
147	0xbe599235	-0.2124718
148	0x3e09ff19	0.13476218
149	0x3e681837	0.22665487
150	0xbd89a5ce	-0.06721078
151	0x3db33926	0.087511346
152	0x3d95a196	0.07306211
153	0xbddd8abb	-0.10817476
154	0xbe682fdc	-0.22674507
155	0xbdf1a418	-0.117988765
156	0xbcdd6cad	-0.02702936
157	0x3ddcd74e	0.107832536
158	0xbd02c855	-0.031929333
159	0x3db47e16	0.088131115
160	0xbe7aa336	-0.24476323
161	0xbd98d169	-0.07461817
162	0xbd1c52e2	-0.03816498
163	0xbdc29000	-0.09500122
164	0x3e1ba269	0.15198673
165	0x3d028e5e	0.031874053
166	0x3d195cd9	0.037442062
167	0xbc531acc	-0.012884807
168	0x3db0bc81	0.08629704
169	0x3d06ad82	0.032880314
170	0xbdd21d0e	-0.10259448
171	0x3c6543f5	0.013993253
172	0x3caa0208	0.020752922
173	0xbe5061a6	-0.2034975
174	0xbe4c1820	-0.19931078
175	0x3b80c165	0.0039293044
176	0xbd571dc0	-0.052518606
177	0x3dde55d0	0.10856211
178	0x3e6894dd	0.22713037
179	0x3dc7f3e4	0.09763315
180	0x3d933ca1	0.071892984
181	0xbd6343b8	-0.055484504
182	0xbe510f40	-0.20415974
183	0xbe35ae09	-0.1774217
184	0xbdaf7175	-0.08566562
185	0xbdbb49c4	-0.09144929
186	0x3e4298f3	0.19003658
187	0xbe44ca7f	-0.19217871
188	0x3e2fc450	0.17164731
189	0x3d8e4dd0	0.06948435
190	0xbe613ee0	-0.21996641
191	0x3e4cbe53	0.19994478
192	0x3e178afa	0.14799109
193	0x3ceaa8ad	0.028644884
194	0x3e206472	0.15663317
195	0x3e39cdc8	0.18144906
196	0xbe2efa79	-0.17087735
197	0x3e177e31	0.14794232
198	0xbe11b022	-0.14227346
199	0xbe51d77c	-0.20492357
200	0xbe488ba4	-0.19584519
201	0xbe71833a	-0.23585215
202	0xbe08af23	-0.1334806
203	0x3e15cd89	0.14629187
204	0x3dc3c7e7	0.09559613
205	0xbd91e327	-0.07123404
206	0x3e19bb73	0.15012912
207	0x3df938aa	0.12169011
208	0xbd14aa65	-0.036295313
209	0xbda61eca	-0.08111341
210	0xbd387e67	-0.04504242
211	0xbdd65beb	-0.10466751
212	0x3e384709	0.17995848
213	0x3de2c65e	0.11072992
214	0x3cfc37df	0.03078836
215	0xbe3cb6b9	-0.18429078
216	0xbd4408a0	-0.047859788
217	0x3da85762	0.08219792
218	0x3e0335c0	0.12813473
219	0x3d6e8347	0.058230665
220	0xbe4defc1	-0.2011099
221	0xbe23d1e8	-0.15998042
222	0x3c146ace	0.009058667
223	0xbd2951eb	-0.04133789
224	0x3e4a864d	0.19777794
225	0x3e37149b	0.17878954
226	0x3b43640f	0.0029814278
227	0x3de5dbba	0.1122355
228	0xbd457cc8	-0.048214704
229	0x3cfccead	0.03086027
230	0x3da1cab5	0.078999914
231	0xbdf65cc1	-0.1202941
232	0x3c796e65	0.015224074
233	0xbd68b0c3	-0.056809198
234	0xbc4191cc	-0.011814546
235	0xbdc74789	-0.09730441
236	0x3c196da0	0.009364516
237	0xbd891fa7	-0.0669549
238	0x3c866b91	0.016408714
239	0xbcee761c	-0.029109053
240	0x3d1834c5	0.0371597
241	0xbd212d6e	-0.039349966
242	0x3e51d66c	0.20491952
243	0xbd849c15	-0.06475083
244	0x3d923f2e	0.07140957
245	0xbdb6f167	-0.089327626
246	0x3e65fb2b	0.22459094
247	0xbe3559cc	-0.17710036
248	0xbdbda4bf	-0.092599384
249	0xbdcb7189	-0.099337645
250	0xbd8244af	-0.063607566
251	0xbe49561e	-0.19661757
252	0xbe50be5e	-0.2038512
253	0x3e70a7a5	0.23501451
254	0xbe0c4781	-0.13699152
255	0x3e2dfe92	0.16991642

lstm.bias_ih_l1 f4 [60]
0	0x3e1410e7	0.14459573
1	0x3e021573	0.12703495
2	0x3e2e707f	0.17035101
3	0x3dae2f97	0.08505171
4	0x3da6998a	0.08134754
5	0xbe13a1fa	-0.14417258
6	0xbcd8d1d6	-0.026467245
7	0x3e532a37	0.20621572
8	0x3e19e936	0.15030369
9	0x3d9bd7f6	0.07609551
10	0xbe43ad62	-0.19109109
11	0x3e51c8ee	0.20486805
12	0xbe243013	-0.16033964
13	0x3de5674b	0.11201342
14	0x3d3401b1	0.043946926
15	0xbe1116df	-0.14168881
16	0xbe3f17d0	-0.18661427
17	0x3e5f40b9	0.21802033
18	0x3e08167d	0.13289829
19	0xbe131f11	-0.1436732
20	0xbe52d84f	-0.20590328
21	0x3d82e2f1	0.06390942
22	0xbd4eff86	-0.050536655
23	0xbd8b2e46	-0.06795935
24	0xbdf0f292	-0.117650166
25	0xbd931d5c	-0.07183334
26	0x3aa26ecc	0.0012392639
27	0xbe2db1b5	-0.16962321
28	0x3d2c3475	0.042042214
29	0x3d01a9e7	0.031656172
30	0x3d84ac7f	0.064782135
31	0x3d53e9dc	0.051736698
32	0x3d8b06bf	0.06788396
33	0xbe073a07	-0.1320573
34	0x3e1d62e3	0.15369754
35	0xbe2fa9fb	-0.17154686
36	0xbd56fbb4	-0.052486137
37	0x3dcd5c4a	0.10027368
38	0xbe280827	-0.1640936
39	0x3d90b99e	0.07066654
40	0x3e37b9ac	0.17941922
41	0x3e1938fe	0.14963147
42	0xbe47d78d	-0.1951582
43	0xbd9fd7ef	-0.07804858
44	0xbe52a8cf	-0.20572208
45	0x3da1bf39	0.07897801
46	0xbe289cba	-0.16466036
47	0x3d9d98ed	0.07695184
48	0x3d7c6e7e	0.06162881
49	0x3d5c0a37	0.05372068
50	0x3d48dacd	0.04903679
51	0xbe075625	-0.13216455
52	0x3a803fc5	0.000978463
53	0xbd4fbb34	-0.05071564
54	0x3d810c05	0.06301121
55	0xbb5dec7e	-0.0033862884
56	0x3dd18586	0.10230546
57	0xbe0e45e6	-0.13893852
58	0xbcd960c3	-0.026535397
59	0x3e3e6bea	0.18595853

lstm.bias_hh_l1 f4 [60]
0	0xbcf69953	-0.030102408
1	0x3e4382d0	0.1909287
2	0x3ce3f4f2	0.02782676
3	0xbdb55508	-0.08854109
4	0xbdc31240	-0.09524965
5	0x3d95d073	0.07315149
6	0x3dae09da	0.08497973
7	0x3dda970f	0.106733434
8	0xbe051c98	-0.12999189
9	0xbe30492d	-0.17215414
10	0x3e3e0a2c	0.18558568
11	0xbe675884	-0.2259236
12	0xbc7de7fc	-0.015497204
13	0x3e2a3c8a	0.16624656
14	0xbdd21a15	-0.10258881
15	0x3e435def	0.19078802
16	0xbd848159	-0.064699836
17	0x3d6c9ec1	0.057768587
18	0x3ca59dc2	0.020216826
19	0xbe5530a5	-0.20819338
20	0x3e4c2374	0.199354
21	0x3e1e13eb	0.15437286
22	0xbcfb815c	-0.030701332
23	0xbe61772c	-0.22018117
24	0x39d95f14	0.00041460304
25	0x3c81ba8f	0.015836028
26	0xbd8eaa04	-0.06966022
27	0x3e2cedeb	0.16887634
28	0x3dcb951b	0.09940549
29	0xbe19b980	-0.15012169
30	0xbe003620	-0.12520647
31	0x3e27b5a0	0.16377878
32	0x3d22b3f9	0.039722417
33	0x3e634864	0.22195584
34	0xbdef56a8	-0.1168645
35	0xbe679484	-0.22615248
36	0xbaa892de	-0.0012861153
37	0xbd5ed6b4	-0.054403976
38	0x3dcfd3bd	0.10147808
39	0xbe10d991	-0.14145495
40	0x3d951df2	0.07281102
41	0x3e468625	0.1938711
42	0xbd18de32	-0.037321277
43	0xbccfe550	-0.0253779
44	0x3e3c419f	0.18384407
45	0xbe248275	-0.1606539
46	0x3e4c8a76	0.19974694
47	0xbdb7995f	-0.089648
48	0x3e39239b	0.18079989
49	0xbe2ecdfb	-0.17070763
50	0x3e4c062f	0.19924234
51	0x3e51539f	0.20442055
52	0xbd8dad74	-0.06917849
53	0x3d014687	0.0315614
54	0xbd909a47	-0.07060676
55	0xbe14c238	-0.14527214
56	0xbe19f286	-0.15033922
57	0x3e5ae476	0.21376213
58	0xbe065eb6	-0.13122067
59	0xbd4e55a1	-0.05037463

linear.weight f4 [1, 20]
0	0x3e24b570	0.16084838
1	0x3d8ac838	0.0677647
2	0xbc966172	-0.018357012
3	0x3d9ae010	0.07562268
4	0xbdce331d	-0.10068343
5	0xbe3b1500	-0.1826973
6	0x3d8c1412	0.068397656
7	0xbe5e0a01	-0.21683504
8	0xbe0395d6	-0.12850127
9	0xbe1b2c53	-0.15153627
10	0x3d0eab38	0.034831256
11	0xbd112457	-0.035435047
12	0xbdda18b2	-0.106492415
13	0xbcc342bc	-0.023835532
14	0x3dc346b3	0.09534969
15	0xbe1349ef	-0.14383672
16	0x3cfa20c2	0.030533198
17	0x3c4bb38c	0.012432944
18	0xbcba858f	-0.022768764
19	0x3e358bfc	0.17729181
